checkpoint_actor.pth (torch_old, 178185 bytes, 18 tensors)

bn0.weight f4 [33]
1.0427868 1.0203234 1.0572704 0.63593405 0.62210065 0.59288853 0.69409204 0.59101963
0.6359291 0.6800139 0.79003 0.6316208 0.74631095 1.2094679 1.0550915 1.1753021
0.81176704 0.87761104 0.78635186 1.0042669 0.62379235 0.690075 0.5430506 1.0023973
0.7773228 1.0134478 1.2846949 1.0 1.236913 1.0 1.0 1.0
1.315844
00000000: 0a7a 853f f599 823f a354 873f 93cc 223f
00000010: fd41 1f3f 8bc7 173f 04b0 313f 104d 173f
00000020: 40cc 223f 6415 2e3f 683f 4a3f e7b1 213f
00000030: 3c0e 3f3f d8cf 9a3f 3d0d 873f 4d70 963f
00000040: f7cf 4f3f 1eab 603f 5b4e 493f d18b 803f
00000050: dbb0 1f3f c1a8 303f 5d05 0b3f 8e4e 803f
00000060: a1fe 463f a8b8 813f e270 a43f 0000 803f
00000070: 2a53 9e3f 0000 803f 0000 803f 0000 803f
00000080: 946d a83f

bn0.bias f4 [33]
0.0003267097 -0.00022689305 -0.00018678527 -6.9579005e-07 -0.00014540035 -4.2978176e-05 5.7791895e-05 9.104541e-05
7.5590135e-05 -0.000294306 -5.0686212e-05 -3.261999e-05 1.2885669e-05 -0.00022577056 8.3934065e-06 0.0006450747
0.00026330395 -0.00025783412 -0.00012718368 6.670793e-05 2.0327112e-05 -3.635866e-06 5.221108e-05 -0.00010866034
-1.1348901e-05 0.00020923594 -1.0963165e-05 -0.0002148254 -0.0005345783 6.0460006e-06 0.0001927039 -0.00014779136
3.637215e-05
00000000: 3c4a ab39 24ea 6db9 cadb 43b9 54c6 3ab5
00000010: 9c76 18b9 7743 34b8 9365 7238 a2ef be38
00000020: 2586 9e38 154d 9ab9 e897 54b8 73d1 08b8
00000030: 872f 5837 d3bc 6cb9 68d1 0c37 3b1a 293a
00000040: 0f0c 8a39 e92d 87b9 9c5c 05b9 8ce5 8b38
00000050: 2484 aa37 b4ff 73b6 38fd 5a38 93e0 e3b8
00000060: 2967 3eb7 5866 5b39 6fee 37b7 c142 61b9
00000070: f122 0cba c0de ca36 8f10 4a39 71f8 1ab9
00000080: 4c8e 1838

bn0.running_mean f4 [33]
0.42723647 -2.6982841 -0.10239605 0.87969935 0.056555185 0.0060694623 -0.011813063 -0.0053048437
-0.010772054 0.001110149 -0.008157558 -0.0016149643 0.021925429 0.4190635 -2.622658 -0.07841518
-0.033306193 0.03297142 -0.075277366 -0.65741676 0.038947973 0.008280151 -0.018411508 -0.031494744
0.11260468 0.006843239 0.05056243 -0.99999976 0.02364161 0.0 0.99999976 0.0
-0.006086376
00000000: bdbe da3e b0b0 2cc0 05b5 d1bd fa33 613f
00000010: 69a6 673d 57e2 c63b 948b 41bc 41d4 adbb
00000020: 457d 30bc 6b82 913a 47a7 05bc 36ad d3ba
00000030: f59c b33c 7e8f d63e a1d9 27c0 2398 a0bd
00000040: 136c 08bd 0a0d 073d 052b 9abd 774c 28bf
00000050: e987 1f3d 78a9 073c bbd3 96bc a200 01bd
00000060: 489d e63d 403d e03b 8d1a 4f3d fcff 7fbf
00000070: 0dac c13c 0000 0000 fcff 7f3f 0000 0000
00000080: 3970 c7bb

bn0.running_var f4 [33]
3.5567377 0.43192983 4.5937886 0.049662586 0.057516705 0.01451206 0.10111793 0.25092664
0.05065578 0.08493962 1.7787262 0.736549 2.1777647 15.997683 1.1228969 22.069963
0.07953596 0.11900171 0.06305492 0.2984672 0.89392895 0.29055634 0.41018856 5.970368
2.8763258 8.593866 32.059486 6e-45 31.95805 6e-45 6e-45 6e-45
0.33426937
00000000: 97a1 6340 e825 dd3e 5100 9340 ff6a 4b3d
00000010: a396 6b3d fec3 6d3c eb16 cf3d 7579 803e
00000020: 6f7c 4f3d d3f4 ad3d 4dad e33f 7a8e 3c3f
00000030: 7f60 0b40 82f6 7f41 16bb 8f3f 498f b041
00000040: c0e3 a23d 2bb7 f33d f022 813d b1d0 983e
00000050: 87d8 643f cdc3 943e 3c04 d23e 410d bf40
00000060: b915 3840 7a80 0941 ea3c 0042 0400 0000
00000070: 16aa ff41 0400 0000 0400 0000 0400 0000
00000080: 5b25 ab3e

fc1.weight f4 [256, 33]
-0.002171241 0.07363897 0.056497883 0.0055172695 -0.037752733 -0.009978394 -0.022831932 0.033857875
-0.031358156 0.03600317 -0.039572846 0.008155927 -0.021094581 0.00116714 -0.032014046 0.036940146
0.04531741 0.059374265 -0.040049125 -0.009141784 0.025589406 0.040671192 -0.003066944 0.09960179
0.021875933 0.0022116578 -0.12921616 0.0144419 0.022823375 0.030105263 0.011047237 0.0473411
0.01589131 -0.018877544 0.040728234 0.052484285 0.014572306 -0.015208968 -0.0068157413 -0.0015915113
0.024079531 0.030581389 -0.031012818 -0.0091952495 0.03505838 0.025613703 -0.0075351805 -0.004826745
-0.034493066 -0.04879468 0.02193519 0.003281897 0.01573692 -0.048995443 0.006665046 0.015133762
-0.026302418 -0.045602966 0.010937041 0.060673725 -0.02765096 0.04886781 0.011548907 0.041027755
0.041798443 -0.14291081 -0.023095727 -0.033081695 0.03329805 0.010480486 0.004577944 -0.01781408
-0.023155361 -0.016588513 0.011553651 -0.013131274 0.0059670946 -0.019868404 0.013616794 -0.047202524
0.008572256 -0.05374039 -0.05314271 0.03168379 0.007446059 0.025863113 -0.022321016 0.024523165
0.021829547 -0.028551495 -0.037100464 -0.037655927 0.15720244 -0.036452092 -0.034489676 0.0069766343
0.049267605 0.005792819 -0.009191693 0.0005787306 -0.009531029 0.04507978 -0.03861224 -0.0058489325
-0.03361304 -0.06157067 0.028410252 0.0281831 -0.009087937 0.024381788 -0.0014699644 0.0371141
0.09642544 0.013981557 -0.07117004 -0.05447947 -0.058566198 0.012737238 0.01159869 -0.00632253
-0.0017170674 0.032657184 -0.032522082 -0.013896008 -0.044389043 -0.05722426 0.061117396 -0.07595842
0.018407807 -0.030247323 -0.043636277 0.07005942 -0.055325504 -0.011781276 -0.009855459 0.027250722
-0.009759145 -0.0017999364 -0.061115168 0.015881034 0.01920869 0.052830048 -0.14669119 -0.009486304
-0.041069843 -0.07080043 0.049319968 0.0074926647 0.01887104 0.0061981715 -0.01271011 0.037259676
-0.0088255955 0.000335247 0.005340388 -0.03173236 0.08041029 0.025613895 0.0040803184 -0.015765168
-0.09472652 -0.0071124285 -0.030779801 -0.05046945 -0.12819369 0.020964373 -0.029481089 -0.01909148
-0.011630581 0.024968103 -0.021058492 0.022386918 -0.017591681 -0.017855346 0.032098148 -0.059879627
0.03360208 -0.0243293 -0.04253204 -0.03363138 -0.05724606 0.006814845 0.10521581 -0.10568491
0.035424333 -0.04138351 -0.02776541 0.010786561 0.05538007 0.004033356 0.008520219 0.06983374
-0.026777864 0.024547858 0.061666273 0.037510052 -0.061769 0.0856018 -0.011870299 -0.015421112
-0.003911171 -0.03056945 -0.017428441 0.020459337 -0.008730967 0.00090238894 0.0062594614 -0.0019397113
-0.04041759 0.004612008 0.019888053 -0.002066949 -0.010319316 0.023062743 -0.10766935 0.06530021
-0.037645403 -0.123196095 -0.001889622 0.055567548 0.030371027 -0.08212134 -0.034472935 0.035587825
0.008437468 0.026302867 -0.0737956 -0.0531547 0.027556926 -0.061846264 -0.11212443 0.015729599
0.05323126 0.03217224 0.038988486 0.052437518 0.027805505 0.016218793 -0.037617862 0.0036026002
0.0066417516 0.008908457 -0.010936607 -0.059076723 -0.047735486 -0.09995044 -0.01926198 0.007068063
-0.07641712 -0.029787587 -0.024702989 0.012443705 0.05725416 -0.00095015595 -0.057442296 -0.079763174
00000000: 614b 0ebb 07d0 963d 536a 673d 36ca b43b
00000010: 9ca2 1abd 6b7c 23bc 080a bbbc 8eae 0a3d
00000020: 6971 00bd 0f78 133d 2317 22bd 70a0 053c
00000030: 8bce acbc b8fa 983a 2921 03bd 8d4e 173d
00000040: c09e 393d 6e32 733d 8d0a 24bd 6cc7 15bc
00000050: e0a0 d13c d696 263d c8fe 48bb 06fc cb3d
00000060: 2835 b33c 76f1 103b 3e51 04be b89d 6c3c
00000070: 16f8 ba3c 509f f63c 78ff 343c bee8 413d
00000080: 7e2e 823c 14a5 9abc a6d2 263d c3f9 563d
00000090: aec0 6e3c 092f 79bc 9556 dfbb 429a d0ba
000000a0: 7042 c53c d285 fa3c 980e febc aca7 16bc
000000b0: 6099 0f3d d4d3 d13c ade9 f6bb ac29 9ebb
000000c0: 9a48 0dbd eedc 47bd 6db1 b33c 1815 573b
000000d0: b7ea 803c 72af 48bd 7566 da3b 99f3 773c
000000e0: 2b78 d7bc 2dca 3abd 4631 333c 0385 783d
000000f0: 4484 e2bc 9d29 483d a037 3d3c b80c 283d
00000100: d834 2b3d 3657 12be 4033 bdbc ac80 07bd
00000110: 8963 083d 58b6 2b3c 9402 963b d5ee 91bc
00000120: 50b0 bdbc a2e4 87bc 864b 3d3c 8e24 57bc
00000130: 9e87 c33b 10c3 a2bc f918 5f3c 6f57 41bd
00000140: a672 0c3c e21e 5cbd 2cac 59bd ddc6 013d
00000150: 12fe f33b e1de d33c 90da b6bc cee4 c83c
00000160: e1d3 b23c d3e4 e9bc a8f6 17bd 1a3d 1abd
00000170: adf9 203e ca4e 15bd 0c45 0dbd 409c e43b
00000180: d4cc 493d b0d1 bd3b c198 16bc f4b5 173a
00000190: 0828 1cbc 93a5 383d de27 1ebd 67a8 bfbb
000001a0: d4ad 09bd 8731 7cbd 9ebc e83c 3fe0 e63c
000001b0: 92e5 14bc 51bc c73c d2ab c0ba f404 183d
000001c0: b37a c53d e712 653c 99c1 91bd dd25 5fbd
000001d0: 1ce3 6fbd d9af 503c 6f08 3e3c 3a2d cfbb
000001e0: 390f e1ba 8ac3 053d e035 05bd 15ac 63bc
000001f0: 49d1 35bd fc63 6abd 3c56 7a3d 1790 9bbd
00000200: f8cb 963c 3cc9 f7bc f4bb 32bd 507b 8f3d
00000210: ff9c 62bd 4106 41bc cb78 21bc e83c df3c
00000220: d2e4 1fbc d8eb ebba e653 7abd f118 823c
00000230: 8b5b 9d3c 5264 583d 3736 16be 716c 1bbc
00000240: da38 28bd d1ff 90bd bc03 4a3d 0785 f53b
00000250: 7097 9a3c 081a cb3b 113e 50bc 9a9d 183d
00000260: 3b99 10bc 17c4 af39 6cfe ae3b cbf9 01bd
00000270: 26ae a43d 3bd4 d13c 31b4 853b f425 81bc
00000280: faff c1bd 600f e9bb ec25 fcbc 0eb9 4ebd
00000290: 3545 03be 7abd ab3c 5382 f1bc bc65 9cbc
000002a0: 318e 3ebc e889 cc3c dc82 acbc c564 b73c
000002b0: 6e1c 90bc 6045 92bc 5979 033d 5744 75bd
000002c0: 56a2 093d 3d4e c7bc 1436 2ebd 0fc1 09bd
000002d0: d87a 6abd 104f df3b 637b d73d 5571 d8bd
000002e0: 1b19 113d c181 29bd 4974 e3bc 1eba 303c
000002f0: 36d6 623d 3e2a 843b 6398 0b3c fe04 8f3d
00000300: 405d dbbc 9718 c93c c695 7c3d 24a4 193d
00000310: 7e01 7dbd ff4f af3d a47b 42bc d5a8 7cbc
00000320: 4829 80bb c96c fabc 17c6 8ebc 579a a73c
00000330: 540c 0fbc 4c8e 6c3a 2b1c cd3b e93d feba
00000340: ea8c 25bd 5420 973b 45ec a23c a675 07bb
00000350: 5912 29bc 14ee bc3c c081 dcbd 1ebc 853d
00000360: 1132 1abd 3c4e fcbd 31ad f7ba cc9a 633d
00000370: a9cc f83c 3c2f a8bd 7e33 0dbd 8ac4 113d
00000380: 4e3d 0a3c 1c79 d73c 2622 97bd beb8 59bd
00000390: 10bf e13c 8252 7dbd 7ea1 e5bd 5cdb 803c
000003a0: 0609 5a3d 0ac7 033d 64b2 1f3d b9c8 563d
000003b0: 5fc8 e33c 46dd 843c 3015 1abd 9a19 6c3b
000003c0: 0da3 d93b c7f4 113c 742f 33bc 6ffa 71bd
000003d0: 4986 43bd d1b2 ccbd 4dcb 9dbc 369b e73b
000003e0: 9480 9cbd 1905 f4bc ec5d cabc afe0 4b3c
000003f0: 5783 6a3d e313 79ba 9d48 6bbd e05a a3bd

fc1.bias f4 [256]
-0.07606838 0.08219463 0.15229541 0.09415342 -0.036760017 -0.1370168 -0.1439511 -0.04170287
-0.054795474 -0.13192573 0.04289676 -0.06613875 0.050187834 -0.09255976 -0.015924197 -0.052380882
0.10690211 -0.15895951 -0.06847625 0.036927033 -0.049072698 -0.0030199403 0.11737396 0.025034398
0.021602789 0.050541237 -0.093393005 -0.069522314 0.083377704 0.025249394 0.11354352 -0.022521619
0.16350542 0.103632525 -0.048733503 -0.088932045 0.035117786 -0.14491275 -0.08047545 0.053340882
0.015085835 0.07896295 -0.07213988 0.1467678 -0.09570187 -0.089225926 0.11643931 -0.033691604
0.050027315 -0.030900301 -0.12314612 -0.006868945 0.07897872 0.117484584 0.13304913 -0.0062646917
0.12616916 0.04913058 0.0063691316 0.0031632315 -0.016568335 0.04967669 -0.008849362 0.11254002
-0.02630906 -0.09653491 0.0508634 -0.097554386 0.10835461 0.14264387 0.02805714 -0.03487197
-0.007728145 0.08152025 -0.13277994 -0.046686105 -0.10592848 -0.15715207 -0.124547966 -0.11180664
0.13262598 0.10608524 -0.118326366 -0.13716966 0.1558045 0.041321028 0.08040185 0.02707837
-0.064775184 -0.09371381 0.09326554 -0.17176077 -0.14470012 0.05256441 -0.045847543 0.03305568
0.092778236 -0.10003411 -0.098014876 -0.10700431 -0.15265863 -0.01168745 0.14779575 -0.010740041
0.09502876 -0.086437546 0.017266108 -0.13084015 -0.011434144 0.037857596 -0.07451582 0.15986657
0.049214054 0.08695881 0.17303695 0.07384258 -0.013566296 0.08313911 0.17129461 -0.16742973
-0.03298708 0.08617554 -0.042143553 -0.14204378 -0.10126716 -0.09017718 0.07211315 0.11065072
-0.01981176 -0.14214222 0.024753448 0.048712805 -0.065645725 0.05993287 -0.07100251 0.05872411
0.124832235 0.08660956 -0.016356157 0.16693814 -0.015599304 -0.15538885 0.12503576 0.16197793
0.079466015 0.15247978 0.09364179 0.071282156 0.100931674 -0.13411759 -0.0021315992 -0.0742942
0.0479734 -0.15443365 0.010313338 0.06794561 -0.064636715 -0.07025278 -0.11299219 0.047914486
-0.14669281 -0.03569042 0.009729433 0.04972757 -0.14965501 0.03513436 -0.06823762 -0.020333577
-0.12701774 -0.13705865 0.02376612 0.029536573 0.14955658 0.16358902 0.12702958 0.06740324
0.11584368 0.07407832 -0.16303444 0.12628485 0.02145145 -0.043349635 -0.051853303 0.13892096
0.121625595 -0.016263252 -0.06510046 -0.09370232 0.100357495 -0.105392784 -0.115685865 -0.104466826
0.05050893 0.1335061 0.03477424 0.06489181 -0.14039767 -0.1267295 -0.10194971 -0.11156067
-0.07761713 -0.10568775 -0.05691457 -0.10753498 0.05179371 0.004413496 0.008783004 0.073982246
-0.15660171 -0.06808111 -0.0059300335 -0.16221698 0.09240834 -0.12983999 0.11800202 0.17187467
0.035927486 -0.084119804 0.1227559 -0.113817625 0.008256745 0.108962856 0.16338153 0.012654152
-0.013270993 -0.015188006 -0.16866563 0.030799357 -0.1381942 0.015633704 -0.041428942 0.10998219
-0.06963261 0.12340663 -0.04158918 -0.033786125 -0.15865302 0.15190509 0.014750227 -0.157297
0.009741742 0.07154216 -0.03676064 0.14201494 0.085617185 -0.022253282 0.17443997 0.12287976
-0.02123637 -0.015030483 0.05337278 -0.060530983 0.106219076 -0.16750777 -0.09306726 0.079965755
00000000: bdc9 9bbd a855 a83d 54f3 1b3e 82d3 c03d
00000010: ac91 16bd 224e 0cbe eb67 13be a1d0 2abd
00000020: 3871 60bd 8a17 07be 83b4 2f3d c173 87bd
00000030: c291 4d3d f98f bdbd 7673 82bc 568d 56bd
00000040: 7eef da3d 48c6 22be 473d 8cbd cd40 173d
00000050: 7400 49bd 31ea 45bb c261 f03d f014 cd3c
00000060: 55f8 b03c 5404 4f3d d544 bfbd b761 8ebd
00000070: eec1 aa3d d1d7 ce3c 8189 e83d 427f b8bc
00000080: f76d 273e 4a3d d43d c89c 47bd 0122 b6bd
00000090: abd7 0f3d 0264 14be 50d0 a4bd f87b 5a3d
000000a0: 942a 773c 54b7 a13d 13be 93bd 4c4a 163e
000000b0: 58ff c3bd 15bc b6bd bc77 ee3d 3500 0abd
000000c0: 71e9 4c3d a122 fdbc 0834 fcbd e314 e1bb
000000d0: 98bf a13d c29b f03d 083e 083e 0b48 cdbb
000000e0: 7d32 013e 263d 493d 26b4 d03b 384e 4f3b
000000f0: 51ba 87bc c979 4b3d eafc 10bc 627b e63d
00000100: 1986 d7bc 18b4 c5bd 2456 503d 98ca c7bd
00000110: 06e9 dd3d 3c11 123e 16d8 e53c e9d5 0ebd
00000120: 613c fdbb 17f4 a63d 77f7 07be ee39 3fbd
00000130: 08f1 d8bd 79ec 20be 0113 ffbd e1fa e4bd
00000140: 1bcf 073e 3843 d93d 1855 f2bd 3476 0cbe
00000150: 378b 1f3e 3d40 293d baa9 a43d 75d3 dd3c
00000160: daa8 84bd 07ed bfbd 0102 bf3d 0ee2 2fbe
00000170: 452c 14be c74d 573d a2ca 3bbd 6565 073d
00000180: 8402 be3d afde ccbd 06bc c8bd 1325 dbbd
00000190: 8b52 1cbe b87c 3fbc c557 173e fff6 2fbc
000001a0: 709e c23d 2b06 b1bd a771 8d3c f6fa 05be
000001b0: 4756 3bbc 9110 1b3d c09b 98bd 10b4 233e
000001c0: ad94 493d 7617 b23d 9930 313e c73a 973d
000001d0: 2b45 5ebc d644 aa3d db67 2f3e b372 2bbe
000001e0: 761d 07bd cd7c b03d b89e 2cbd ed73 11be
000001f0: 2865 cfbd d0ae b8bd 0fb0 933d d89c e23d
00000200: 464c a2bc bb8d 11be bec7 ca3c 1487 473d
00000210: 4471 86bd 2b7c 753d c469 91bd b188 703d
00000220: 0ba8 ff3d 5a60 b13d 59fd 85bc d5f1 2a3e
00000230: 3994 7fbc 411e 1fbe 6009 003e 8bdd 253e
00000240: 14bf a23d a923 1c3e 44c7 bf3d 61fc 913d
00000250: 44b5 ce3d 1f56 09be 4db2 0bbb 8f27 98bd
00000260: c27f 443d db23 1ebe 46f9 283c 1127 8b3d
00000270: 4160 84bd b1e0 8fbd 7368 e7bd fb41 443d
00000280: a436 16be 1e30 12bd 3368 1f3c 23af 4b3d
00000290: 2a3f 19be 0ce9 0f3d 2ac0 8bbd 9a92 a6bc
000002a0: f010 02be 1a59 0cbe 2bb1 c23c aff6 f13c
000002b0: 5c25 193e e183 273e 0b14 023e b60a 8a3d
000002c0: 743f ed3d 60b6 973d 80f2 26be d150 013e
000002d0: f4ba af3c 638f 31bd 2164 54bd 4c41 0e3e
000002e0: d716 f93d 833a 85bc 6453 85bd 00e7 bfbd
000002f0: 3b88 cd3d 2cd8 d7bd b6ec ecbd b4f2 d5bd
00000300: 74e2 4e3d d3b5 083e 6f6f 0e3d ffe5 843d
00000310: 68c4 0fbe 61c5 01be 02cb d0bd ec79 e4bd
00000320: bbf5 9ebd d272 d8bd 411f 69bd 4d3b dcbd
00000330: a425 543d 169f 903b 97e6 0f3c 0184 973d
00000340: 335c 20be 1c6e 8bbd ba50 c2bb 351c 26be
00000350: 9540 bd3d c6f4 04be 0bab f13d eaff 2f3e
00000360: b328 133d 0147 acbd 7267 fb3d 3719 e9bd
00000370: 4c47 073c eb27 df3d 7d4d 273e 5c53 4f3c
00000380: 946e 59bc 1dd7 78bc afb6 2cbe ef4e fc3c
00000390: c882 0dbe 4112 803c 65b1 29bd 583e e13d
000003a0: 8b9b 8ebd 9dbc fc3d 6a59 2abd 5263 0abd
000003b0: f075 22be 028d 1b3e f0aa 713c 7712 21be
000003c0: d49b 1f3c b284 923d 5392 16bd 5d6c 113e
000003d0: 1058 af3d 844c b6bc 64a0 323e 62a8 fb3d
000003e0: e5f7 adbc 6a42 76bc 6b9d 5a3d 56ef 77bd
000003f0: 6389 d93d 2887 2bbe 0c9a bebd 16c5 a33d

bn1.weight f4 [256]
0.94616556 1.0244857 0.9819358 0.9678486 1.0031579 1.0333053 0.94191355 0.9734922
0.9723072 0.9827892 1.016494 0.9242812 1.0174094 1.003933 1.0679207 1.0852914
1.0100121 0.98115873 0.9459109 0.977995 1.0026516 0.94763035 1.0010827 1.0077486
1.0048314 1.1031744 0.94580626 1.0227836 1.0803381 0.9499137 1.0374811 1.0579702
1.056208 1.0338092 1.0070376 0.96432257 0.9471409 1.0115545 0.9947798 0.968728
1.0823343 0.9661157 1.0580913 1.0176612 0.9391985 1.0546426 0.9478921 0.9796046
0.9455279 1.0952855 1.0015668 1.0115575 1.0154002 0.97356284 1.0584277 1.1130841
0.98199815 0.99157727 0.932489 1.062846 0.9773525 1.042144 0.9716006 1.0219548
0.9875934 0.9750433 1.0188175 1.0123324 0.98239887 1.0500673 1.0269024 0.941937
1.0207078 1.0579946 1.1071867 0.98861414 1.060268 0.9566367 1.0087137 0.98550427
0.9610129 1.044576 0.9461833 0.9959889 1.064671 0.9609105 0.9700176 1.10015
1.0165173 1.0689738 1.0563265 1.0492163 0.9792407 1.0421246 0.96561676 0.98848444
0.989091 1.0035269 1.0259632 0.95269895 0.9244844 0.9834198 1.0579835 0.98665094
0.98698115 0.9347322 0.9967426 0.8416946 1.0128251 1.0141696 1.0578508 1.0197548
0.9652266 1.0416131 0.9395353 1.0614154 0.9660022 0.90845263 0.9484557 0.9412403
1.0544513 1.1003466 0.974246 1.025299 1.0146061 1.0492857 0.96913856 0.9507531
0.95993406 1.0449483 0.9364044 1.0478617 0.9882853 0.9309429 0.9854996 0.9388913
1.0737445 0.9785807 0.9532505 1.007587 1.0108806 1.0029974 1.0663084 1.0100677
1.055694 1.0050672 1.0357653 1.1240247 0.96152353 0.98367655 0.95248574 1.0301578
0.98886377 0.9932419 1.0464733 1.0293949 1.010107 1.0386832 1.010156 0.97514975
0.9901607 0.9559069 0.99778205 1.0541631 0.9711447 0.9950069 1.0526649 0.92541695
0.9377053 0.98551434 0.9958497 0.98337865 1.0446246 1.037119 0.9563111 0.9882563
1.006854 0.9411002 1.1770167 0.9592105 1.0223018 1.0472114 0.9981092 0.9801812
0.99329597 1.0159042 1.0187957 0.9657368 0.92812574 1.0758543 1.0018504 0.960681
0.9942586 0.9508846 1.0555881 1.0098213 0.9901726 0.963141 1.047005 0.97292775
0.97179365 0.99350417 0.9945425 1.0524436 0.9354747 1.0243534 1.0180763 1.0376499
1.0384079 1.039043 1.0489856 1.0217167 0.97962445 0.98319405 0.9648957 0.9748567
1.0383884 1.0171149 0.9461348 1.0266614 1.0163072 1.065055 1.0428517 0.95286137
0.9825549 0.9754539 1.0690228 0.97041976 0.99650395 1.0131173 0.9661769 1.0394486
1.0351839 1.0113404 1.0386554 0.97214925 0.9895232 1.0070192 1.1058933 0.9684478
0.9660519 1.0401064 1.0121132 0.9684162 0.9878424 1.0392123 1.052125 0.94393134
0.99297965 0.98283416 1.0465424 0.93422574 1.0686195 1.0073196 0.93526113 0.9670631
00000000: e837 723f 5922 833f 2560 7b3f edc4 773f
00000010: 7a67 803f 5943 843f 3f21 713f c936 793f
00000020: 20e9 783f 1398 7b3f 7a1c 823f b19d 6c3f
00000030: 793a 823f e080 803f a0b1 883f d4ea 8a3f
00000040: 1448 813f 382d 7b3f 3727 723f e15d 7a3f
00000050: e356 803f e797 723f 7a23 803f e8fd 803f
00000060: 519e 803f d234 8d3f 5c20 723f 93ea 823f
00000070: 8548 8a3f 8b2d 733f 2ecc 843f 916b 873f
00000080: d331 873f dc53 843f 9ce6 803f d8dd 763f
00000090: d377 723f 9e7a 813f e4a9 7e3f 8ffe 773f
000000a0: ee89 8a3f 5c53 773f 896f 873f b942 823f
000000b0: 506f 703f 87fe 863f 0fa9 723f 5ec7 7a3f
000000c0: 1e0e 723f 5132 8c3f 5733 803f b77a 813f
000000d0: a2f8 813f 6a3b 793f 8f7a 873f 8a79 8e3f
000000e0: 3b64 7b3f 02d8 7d3f 99b7 6e3f 560b 883f
000000f0: c633 7a3f f964 853f d1ba 783f 6acf 823f
00000100: ecd2 7c3f 709c 793f 9d68 823f 1c94 813f
00000110: 7e7e 7b3f 9b68 863f 8a71 833f c922 713f
00000120: 8ea6 823f 5e6c 873f 4bb8 8d3f d115 7d3f
00000130: ddb6 873f 25e6 743f 881d 813f 024a 7c3f
00000140: f104 763f abb4 853f 1239 723f 21f9 7e3f
00000150: 2447 883f 3bfe 753f 1353 783f b7d1 8c3f
00000160: 3d1d 823f 22d4 883f b535 873f b84c 863f
00000170: 85af 7a3f 5764 853f a932 773f 510d 7d3f
00000180: 1135 7d3f 9273 803f c352 833f 14e4 733f
00000190: 02ab 6c3f 66c1 7b3f 016c 873f 2895 7c3f
000001a0: ccaa 7c3f 9c4a 6f3f 862a 7f3f 4c79 573f
000001b0: 41a4 813f 4fd0 813f a867 873f 5387 823f
000001c0: 1719 773f 9453 853f 6385 703f 76dc 873f
000001d0: ec4b 773f 5a90 683f fecd 723f 20f5 703f
000001e0: 43f8 863f 28d8 8c3f 3068 793f ff3c 833f
000001f0: 9dde 813f fe4e 863f 7719 783f 8e64 733f
00000200: 3dbe 753f dec0 853f 33b8 6f3f 5520 863f
00000210: 4400 7d3f 4652 6e3f b449 7c3f 2e5b 703f
00000220: 7670 893f 4484 7a3f 3a08 743f 9cf8 803f
00000230: 8964 813f 3862 803f cb7c 883f e649 813f
00000240: fb20 873f 0ba6 803f f593 843f 0be0 8f3f
00000250: 6826 763f 3ad2 7b3f 1bd6 733f 36dc 833f
00000260: 2d26 7d3f 1a45 7e3f d6f2 853f 36c3 833f
00000270: 304b 813f 92f3 843f cb4c 813f 6aa3 793f
00000280: 2c7b 7d3f 51b6 743f a56e 7f3f d1ee 863f
00000290: f09c 783f c6b8 7e3f b9bd 863f 20e8 6c3f
000002a0: 740d 703f ab4a 7c3f 02f0 7e3f b4be 7b3f
000002b0: 42b6 853f 51c0 843f ced0 743f 5dfe 7c3f
000002c0: 98e0 803f f1eb 703f 7ca8 963f d28e 753f
000002d0: c9da 823f 060b 863f 1684 7f3f 28ed 7a3f
000002e0: a548 7e3f 2609 823f e667 823f 873a 773f
000002f0: a699 6d3f 98b5 893f a23c 803f 31ef 753f
00000300: bb87 7e3f 2c6d 733f 831d 873f d341 813f
00000310: f47b 7d3f 6990 763f 4304 863f cb11 793f
00000320: 78c7 783f 4a56 7e3f 569a 7e3f 79b6 863f
00000330: 457b 6f3f 031e 833f 5350 823f b6d1 843f
00000340: 8dea 843f 5cff 843f 2945 863f 9dc7 823f
00000350: abc8 7a3f 9bb2 7b3f 6803 773f 3590 793f
00000360: e9e9 843f d230 823f e435 723f a469 833f
00000370: 5b16 823f b953 883f 2a7c 853f b9ee 733f
00000380: b888 7b3f 59b7 793f bdd5 883f 6e6d 783f
00000390: e21a 7f3f d4ad 813f 5f57 773f a70c 853f
000003a0: e880 843f 9a73 813f a9f2 843f c6de 783f
000003b0: 6451 7d3f 01e6 803f e98d 8d3f 32ec 773f
000003c0: 2d4f 773f 3522 853f ed8c 813f 20ea 773f
000003d0: 3de3 7c3f e904 853f 08ac 863f 7ca5 713f
000003e0: ea33 7e3f 059b 7b3f 1af5 853f 6b29 6f3f
000003f0: 86c8 883f d9ef 803f 466d 6f3f 7391 773f

bn1.bias f4 [256]
-0.16072147 -0.28113222 0.018744847 0.083595335 -0.0055044624 -0.06644548 0.06990108 -0.12479334
0.009200263 0.07049218 0.12449046 -0.28072965 0.028324556 0.16833663 0.13246465 0.015014319
-0.028737688 0.08527674 -0.10160377 -0.0058908 -0.108338594 -0.17659779 -0.070636824 0.044600174
0.14804174 0.025803048 -0.26156244 -0.03314761 -0.0142181525 -0.26396298 0.07873706 0.043326322
0.086879425 0.06528278 -0.11810002 -0.16158919 -0.040292498 -0.10933305 0.113865875 -0.054728787
0.025748502 -0.1507782 0.16834897 -0.14993614 -0.073376276 -0.06185824 -0.18336523 -0.091472976
-0.16316298 -0.08644097 -0.117425494 0.01765077 -0.07737444 0.209302 0.0002242834 0.040215578
-0.033321835 0.08824812 -0.05937775 -0.017397031 0.03183961 -0.16580737 0.0085947625 0.08473551
0.1588563 -0.24394846 -0.019533565 -0.071625166 0.18474172 -0.03739901 -0.031590637 -0.07918666
-0.19528225 -0.031464476 -0.19082463 -0.18953152 -0.029303089 0.10869431 0.03851966 0.042665854
0.02409788 -0.16580857 0.18034793 -0.1572247 -0.08913788 0.08083437 -0.002186254 0.025763726
0.08992976 -0.19396311 -0.16495629 -0.08055971 -0.039732125 0.04653698 0.02217019 0.10092758
-0.024050541 -0.055440813 -0.017965559 0.035548866 0.11941038 -0.16744289 0.0656951 -0.15890808
0.086580254 0.037435208 -0.08709799 -0.066810034 0.118491575 -0.03294491 -0.10232142 -0.03639106
0.22069147 -0.10729787 -0.15759513 -0.2001034 -0.29748467 -0.19800793 -0.0836498 -0.15561296
-0.004508751 -0.1868314 -0.06992954 0.006145332 -0.15627168 0.017278094 -0.14876592 -0.06627709
-0.077907756 0.06412477 0.11795001 -0.06464406 -0.007122846 -0.038628712 0.07650404 -0.0055146385
-0.013681086 0.0137195755 -0.010495261 -0.029676734 -3.946819e-05 0.014135249 0.010633718 -0.115338854
0.05272948 0.06677543 -0.08773366 0.014864943 -0.1634075 -0.058873367 0.018045394 0.0021149677
-0.09315992 -0.021181164 -0.069289416 -0.06179353 -0.14067112 0.007862554 -0.05201567 0.08422945
0.0054784114 -0.10545575 -0.02345034 -0.023481496 -0.33474228 -0.08805605 -0.041364122 0.022887414
-0.08450472 0.10400998 0.14593033 0.095429316 -0.0823986 -0.07104852 0.08338972 -0.07750773
0.18157677 -0.10743154 -0.055911794 -0.16381063 -0.19623679 -0.047309022 0.09774585 -0.074693315
-0.010431604 0.08865073 0.06730128 -0.11982433 0.019538797 -0.0057097026 0.08236557 -0.010091314
-0.069801375 -0.08429584 -0.10409594 0.16098961 -0.10857952 -0.029953633 0.072694376 0.054166712
-0.14986019 0.09563469 -0.08456655 -0.20830594 -0.30711043 -0.027413292 -0.13825557 -0.05456881
0.040453654 0.048322964 0.003322515 0.06730733 0.047160793 -0.469413 -0.028040582 -0.13214898
-0.10659054 -0.024200022 0.077768445 -0.16240568 0.026768098 -0.109547555 -0.013134647 -0.30555564
-0.18351275 -0.008293214 0.10114432 -0.20050052 0.11333727 0.04398475 -0.08190139 0.081931025
-0.044187184 -0.05677868 0.03292977 -0.14048149 0.024389936 -0.14921613 0.04117149 -0.18847612
-0.14680317 0.046342917 -0.15370671 0.08969112 -0.10522248 -0.057463482 -0.04467371 -0.28931865
0.05051187 -0.23615071 -0.021239536 -0.11821404 -0.049676836 -0.116948195 0.08375235 0.22768408
00000000: 2b94 24be 90f0 8fbe cb8e 993c 0834 ab3d
00000010: c75e b4bb 9114 88bd 4c28 8f3d a793 ffbd
00000020: b3bc 163c 345e 903d dbf4 fe3d ccbb 8fbe
00000030: e608 e83c 7060 2c3e d0a4 073e 9efe 753c
00000040: 4d6b ebbc 92a5 ae3d a315 d0bd 9d07 c1bb
00000050: a0e0 ddbd 0dd6 34be 0aaa 90bd acae 363d
00000060: 4198 173e ea60 d33c 83eb 85be cac5 07bd
00000070: 41f3 68bc 2826 87be e540 a13d f176 313d
00000080: d7ed b13d fab2 853d 6cde f1bd a377 25be
00000090: bf09 25bd 02ea dfbd 8332 e93d 4b2b 60bd
000000a0: 86ee d23c 9a65 1abe ac63 2c3e dc88 19be
000000b0: 4d46 96bd 115f 7dbd 18c4 3bbe 2f56 bbbd
000000c0: 3214 27be f707 b1bd c77c f0bd 5998 903c
000000d0: 7e76 9ebd 4353 563e 9e2d 6b39 17b9 243d
000000e0: 7a7c 08bd 6ebb b43d 1536 73bd 3884 8ebc
000000f0: 406a 023d 68c9 29be 0cd1 0c3c d089 ad3d
00000100: 3aab 223e a0cd 79be db04 a0bc 37b0 92bd
00000110: ef2c 3d3e b42f 19bd 2f65 01bd 9e2c a2bd
00000120: 12f8 47be e5e0 00bd 8867 43be 8d14 42be
00000130: 080d f0bc 1f9b de3d cac6 1d3d 64c2 2e3d
00000140: eb68 c53c b9c9 29be 21ad 383e 83ff 20be
00000150: ec8d b6bd 7d8c a53d 4147 0fbb 730e d33c
00000160: 182d b83d 449e 46be 4dea 28be 7dfc a4bd
00000170: 27be 22bd 8f9d 3e3d 429e b53c 1eb3 ce3d
00000180: a405 c5bc e815 63bd 822c 93bc b09b 113d
00000190: 6e8d f43d 2676 2bbe 278b 863d cdb8 22be
000001a0: fd50 b13d a955 193d 6e60 b2bd b3d3 88bd
000001b0: b6ab f23d 3ef1 06bd e58d d1bd cb0e 15bd
000001c0: f2fc 613e fcbe dbbd 9e60 21be e8e7 4cbe
000001d0: e94f 98be 97c2 4abe 9650 abbd 0159 1fbe
000001e0: 25be 93bb bb50 3fbe 3837 8fbd c85e c93b
000001f0: af05 20be ca8a 8d3c 1856 18be 48bc 87bd
00000200: 1a8e 9fbd d953 833d c68f f13d 1b64 84bd
00000210: c366 e9bb 2439 1ebd 26ae 9c3d 24b4 b4bb
00000220: a226 60bc 12c8 603c 51f4 2bbc 9f1c f3bc
00000230: a58a 25b8 8897 673c 0c39 2e3c c736 ecbd
00000240: defa 573d 8fc1 883d b5ad b3bd 178c 733c
00000250: 4c54 27be 3325 71bd efd3 933c 459b 0a3b
00000260: a1ca bebd 1f84 adbc 9ce7 8dbd 361b 7dbd
00000270: 170c 10be f1d1 003c 620e 55bd 7d80 ac3d
00000280: 3f84 b33b 2ff9 d7bd ed1a c0bc 445c c0bc
00000290: 5763 abbe bb56 b4bd 6d6d 29bd 637e bb3c
000002a0: d010 adbd 2f03 d53d c36e 153e 7270 c33d
000002b0: 99c0 a8bd e381 91bd 3bc8 aa3d 5fbc 9ebd
000002c0: 43ef 393e 1105 dcbd c403 65bd f9bd 27be
000002d0: 4cf2 48be 1bc7 41bd fa2e c83d cff8 98bd
000002e0: 52e9 2abc 848e b53d 41d5 893d 7566 f5bd
000002f0: d40f a03c 7518 bbbb 48af a83d 0a56 25bc
00000300: 06f4 8ebd 4ca3 acbd 4130 d5bd 76da 243e
00000310: f05e debd 5261 f5bc cae0 943d eadd 5d3d
00000320: f374 19be 1fdc c33d 3a31 adbd 274e 55be
00000330: 943d 9dbe d791 e0bc de92 0dbe 8b83 5fbd
00000340: bbb2 253d 4dee 453d 8dbe 593b 6dd8 893d
00000350: ad2b 413d e756 f0be 5db5 e5bc 1052 07be
00000360: 244c dabd 203f c6bc 1045 9f3d ad4d 26be
00000370: c548 db3c 785a e0bd b432 57bc ca71 9cbe
00000380: c4ea 3bbe 43e0 07bc c124 cf3d 0250 4dbe
00000390: 5f1d e83d 5a29 343d eabb a7bd 74cb a73d
000003a0: 9ffd 34bd c390 68bd 5ee1 063d 61da 0fbe
000003b0: 67cd c73c 1dcc 18be 70a3 283d e2ff 40be
000003c0: 9253 16be 12d2 3d3d 4b65 1dbe faaf b73d
000003d0: e27e d7bd d45e 6bbd c8fb 36bd 9321 94be
000003e0: 89e5 4e3d 7ed1 71be 89fe adbc 341a f2bd
000003f0: f079 4bbd 8982 efbd 5a86 ab3d 0426 693e

bn1.running_mean f4 [256]
-0.07610361 0.082126744 0.15227471 0.09411444 -0.03669306 -0.13704076 -0.14391744 -0.04174007
-0.054752145 -0.13188651 0.042798467 -0.066221595 0.050190005 -0.092592016 -0.015825244 -0.052384578
0.10698304 -0.15909378 -0.06849446 0.0369624 -0.048956603 -0.0029995395 0.11738226 0.025034234
0.021742374 0.05046218 -0.09335695 -0.06957007 0.0835113 0.025258815 0.11354603 -0.022353617
0.16351625 0.103547655 -0.048813056 -0.089010864 0.035160836 -0.14488702 -0.0806274 0.053348847
0.01504078 0.07876111 -0.07207851 0.14679238 -0.095662706 -0.08922837 0.11644208 -0.033768795
0.050076507 -0.03085632 -0.123124234 -0.0068571363 0.07893517 0.11747862 0.1331115 -0.0061102053
0.12627888 0.049070913 0.0063859895 0.0031176037 -0.016532233 0.049729686 -0.0088113975 0.112556234
-0.0262249 -0.09649791 0.050970998 -0.09760782 0.108461656 0.14253673 0.028085517 -0.034967273
-0.007704315 0.081580386 -0.1327599 -0.046671953 -0.1058243 -0.15712544 -0.124521285 -0.111778356
0.1326285 0.10594378 -0.11831004 -0.13713644 0.15579553 0.04131099 0.08046735 0.027086454
-0.06485887 -0.09361669 0.09325128 -0.17170602 -0.14456806 0.052568845 -0.045848433 0.033247415
0.09269938 -0.099964425 -0.09811688 -0.106924094 -0.1527138 -0.011814564 0.14787708 -0.010735224
0.095006086 -0.08636462 0.017346544 -0.1308126 -0.011398212 0.037743747 -0.074631326 0.15986332
0.04922069 0.08697527 0.17307551 0.073651515 -0.013554179 0.083202444 0.17129366 -0.16743734
-0.0330947 0.086335085 -0.04216947 -0.14204398 -0.10133112 -0.090006396 0.07211265 0.11062617
-0.019797975 -0.14218535 0.024689106 0.048885543 -0.06560323 0.05989919 -0.07097463 0.058686927
0.12485449 0.08658428 -0.016379965 0.1669524 -0.015703494 -0.15549627 0.12513119 0.16200915
0.07954373 0.15251449 0.0935866 0.0714015 0.10091935 -0.1342052 -0.002191659 -0.074307024
0.047995545 -0.15447477 0.010344736 0.06794488 -0.06453758 -0.07034503 -0.11304401 0.048008524
-0.14660776 -0.035716344 0.009782181 0.049694747 -0.14966662 0.035132363 -0.06825571 -0.020384077
-0.12700106 -0.13706295 0.02380647 0.029446114 0.14945808 0.1635986 0.12696883 0.067463726
0.11582957 0.07410857 -0.16307147 0.12631643 0.021307418 -0.043398976 -0.05168311 0.13889243
0.1216614 -0.016344395 -0.06520594 -0.09367444 0.10035778 -0.10532551 -0.11566874 -0.10446747
0.050459884 0.1335201 0.034714166 0.06477648 -0.14039923 -0.12675954 -0.10197458 -0.111582115
-0.07763282 -0.10581197 -0.0568179 -0.10758242 0.051817738 0.0044390117 0.008784677 0.0739551
-0.15660727 -0.06810999 -0.0059993104 -0.16229084 0.09242196 -0.12976882 0.117924124 0.17198041
0.035977427 -0.08415366 0.122780666 -0.11370286 0.008218873 0.10897806 0.16334243 0.012541138
-0.013281208 -0.015234919 -0.16853888 0.030756874 -0.13813497 0.01559934 -0.041478217 0.110099085
-0.06958829 0.123385176 -0.041617297 -0.03389609 -0.1586104 0.1519717 0.0146626625 -0.15737653
0.00978279 0.07155171 -0.036725897 0.14190865 0.085684866 -0.022214748 0.17459057 0.12282524
-0.021068478 -0.015211577 0.05330691 -0.060620304 0.10626699 -0.16745737 -0.093071654 0.08000861
00000000: 36dc 9bbd 1132 a83d e7ed 1b3e 12bf c03d
00000010: 764b 16bd 6a54 0cbe 185f 13be a3f7 2abd
00000020: c943 60bd 420d 07be 724d 2f3d 309f 87bd
00000030: 0994 4d3d e2a0 bdbd f1a3 81bc 3691 56bd
00000040: ed19 db3d 7be9 22be d346 8cbd e365 173d
00000050: b886 48bd ec93 44bb 1c66 f03d 9814 cd3c
00000060: 101d b23c 6eb1 4e3d ee31 bfbd c17a 8ebd
00000070: f907 ab3d 93eb ce3c d28a e83d ef1e b7bc
00000080: ce70 273e cb10 d43d 33f0 47bd 544b b6bd
00000090: cf04 103d 435d 14be fa1f a5bd 5284 5a3d
000000a0: 9b6d 763c 814d a13d e69d 93bd be50 163e
000000b0: cfea c3bd 5dbd b6bd 2f79 ee3d 2651 0abd
000000c0: 061d 4d3d 65c6 fcbc 8f28 fcbd d4b1 e0bb
000000d0: c3a8 a13d a198 f03d 624e 083e 1e38 c8bb
000000e0: 404f 013e 95fe 483d 9041 d13b b650 4c3b
000000f0: 9b6e 87bc 5bb1 4b3d ae5d 10bc e283 e63d
00000100: 9ad5 d6bc b2a0 c5bd f7c6 503d 9ce6 c7bd
00000110: 2521 de3d 26f5 113e 9913 e63c d839 0fbd
00000120: 7a74 fcbb 9e13 a73d 36f2 07be 172b 3fbd
00000130: 69ba d8bd 7ee5 20be 0405 ffbd 0dec e4bd
00000140: c4cf 073e 0df9 d83d 894c f2bd 7f6d 0cbe
00000150: dd88 1f3e b635 293d 11cc a43d 69e4 dd3c
00000160: bad4 84bd 1bba bfbd 87fa be3d b4d3 2fbe
00000170: a609 14be 6e52 573d 91cb 3bbd 712e 083d
00000180: 2cd9 bd3d 26ba ccbd 81f1 c8bd 05fb dabd
00000190: 0261 1cbe df91 41bc 176d 173e cbe2 2fbc
000001a0: 8d92 c23d efdf b0bd 571a 8e3c bdf3 05be
000001b0: 91bf 3abc 3099 1a3d 4fd8 98bd 36b3 233e
000001c0: a29b 493d 1720 b23d b53a 313e 9bd6 963d
000001d0: 5912 5ebc 0b66 aa3d 9b67 2f3e b274 2bbe
000001e0: 4f8e 07bd 73d0 b03d e5b9 2cbd fa73 11be
000001f0: b186 cfbd 4655 b8bd ccaf 933d f98f e23d
00000200: 5d2f a2bc 0999 11be cf40 ca3c 353c 483d
00000210: fc5a 86bd da58 753d 265b 91bd b461 703d
00000220: b6b3 ff3d 1953 b13d 472f 86bc 92f5 2a3e
00000230: 9da4 80bc 6a3a 1fbe 6422 003e bae5 253e
00000240: d3e7 a23d c22c 1c3e 55aa bf3d f33a 923d
00000250: ceae ce3d 176d 09be f0a1 0fbb 482e 98bd
00000260: fa96 443d a22e 1ebe f87c 293c af26 8b3d
00000270: 472c 84bd 0e11 90bd 9e83 e7bd 96a4 443d
00000280: 5820 16be 4d4b 12bd 7145 203c b88c 4b3d
00000290: 3542 19be f4e6 0f3d a6c9 8bbd 82fc a6bc
000002a0: 910c 02be 3b5a 0cbe c905 c33c fa38 f13c
000002b0: 8a0b 193e 6486 273e 1e04 023e 6c2a 8a3d
000002c0: 0e38 ed3d 3cc6 973d 35fc 26be 1859 013e
000002d0: e58c ae3c 20c3 31bd abb1 53bd d139 0e3e
000002e0: 9d29 f93d aee4 85bc b18a 85bd 63d8 bfbd
000002f0: 6188 cd3d e7b4 d7bd bbe3 ecbd 0af3 d5bd
00000300: 06af 4e3d 7eb9 083e 7130 0e3d 88a9 843d
00000310: d1c4 0fbe 41cd 01be 0cd8 d0bd 2a85 e4bd
00000320: f5fd 9ebd f2b3 d8bd e3b9 68bd 2c54 dcbd
00000330: d63e 543d 2175 913b 9bed 0f3c c575 973d
00000340: a85d 20be 407d 8bbd dd95 c4bb 922f 26be
00000350: b947 bd3d 1ee2 04be 3482 f13d a21b 303e
00000360: 115d 133d c158 acbd 6e74 fb3d 0cdd e8bd
00000370: 74a8 063c e42f df3d 3d43 273e 5879 4d3c
00000380: 6d99 59bc e29b 79bc 7595 2cbe d7f5 fb3c
00000390: 4173 0dbe 6094 7f3c 10e5 29bd a17b e13d
000003a0: 4e84 8ebd 5eb1 fc3d e676 2abd a0d6 0abd
000003b0: c46a 22be 789e 1b3e aa3b 703c 5027 21be
000003c0: ff47 203c b489 923d e56d 16bd 8050 113e
000003d0: 8c7b af3d b4fb b5bc dfc7 323e cd8b fb3d
000003e0: cd97 acbc fa39 79bc 5958 5a3d ff4c 78bd
000003f0: 82a2 d93d f279 2bbe 5a9c bebd 8edb a33d

bn1.running_var f4 [256]
0.06985855 0.050952677 0.030310249 0.040674258 0.0886547 0.041690584 0.06301104 0.040670868
0.04902022 0.040857654 0.05529319 0.03153991 0.08828116 0.025083194 0.042384706 0.05485594
0.084270276 0.057129033 0.07300813 0.02228562 0.045416497 0.064416826 0.06050592 0.047117524
0.03895907 0.029744292 0.07257841 0.06677293 0.050811674 0.041736916 0.021796688 0.03423374
0.06064879 0.043916605 0.065019086 0.050506897 0.106578074 0.071385704 0.0134829935 0.074050754
0.073911585 0.02278152 0.027323425 0.07619875 0.035245426 0.07436719 0.06347382 0.03862404
0.045719106 0.092320465 0.029783322 0.05360284 0.10497966 0.059392743 0.08952364 0.021576015
0.10288527 0.1282302 0.08277349 0.019965475 0.1307264 0.044669393 0.031094825 0.029470632
0.060835842 0.1042622 0.021851094 0.077368125 0.036302205 0.03809781 0.08593763 0.07400176
0.054025404 0.099538155 0.06734877 0.0598401 0.062386103 0.04960821 0.08151661 0.035117805
0.059308395 0.08727559 0.03501814 0.078217 0.046840973 0.049716625 0.031992786 0.036146436
0.039698657 0.047352754 0.047536846 0.023901863 0.09927492 0.07813873 0.037216477 0.019131199
0.05163829 0.07015139 0.026791543 0.054591816 0.052146215 0.049348008 0.07570018 0.044891603
0.02228843 0.051084127 0.0664269 0.054419536 0.011337326 0.034357134 0.06674363 0.045001093
0.040688787 0.077151395 0.054709267 0.028310832 0.0202732 0.089772336 0.06649596 0.05318004
0.026321385 0.0068702297 0.11408482 0.090828314 0.044741448 0.03213567 0.116713345 0.13222937
0.06624555 0.042768933 0.060865786 0.019314706 0.057646506 0.049066015 0.04213024 0.09636865
0.03638229 0.07299451 0.041688904 0.07994297 0.016824117 0.024895916 0.031232378 0.052471917
0.05545786 0.06331872 0.06839484 0.036648218 0.12660865 0.032204866 0.12221147 0.05036855
0.05017291 0.11865912 0.08781737 0.055427108 0.04573105 0.029028714 0.048726965 0.075906076
0.016933346 0.037849233 0.06412732 0.11108284 0.03669578 0.046905253 0.13777164 0.055812888
0.07195311 0.045413774 0.031348906 0.06387066 0.05946544 0.03946622 0.055745944 0.058718987
0.029831251 0.038723465 0.002903613 0.04900183 0.0022609585 0.06435254 0.025034994 0.062429905
0.06305979 0.076637216 0.062152922 0.11534482 0.06749309 0.050153174 0.058858328 0.047599126
0.13379087 0.09348003 0.03940725 0.09661175 0.058954746 0.04785373 0.034963112 0.037188265
0.03962584 0.10855214 0.0882737 0.06904549 0.027007436 0.051551852 0.058527704 0.077358305
0.035339627 0.028309632 0.037558813 0.050521128 0.050834533 0.019131284 0.101529494 0.05811588
0.074083835 0.05675712 0.032880176 0.01907036 0.022356942 0.041097872 0.051751174 0.023419688
0.045961358 0.025864242 0.049210828 0.05730595 0.034977168 0.10977043 0.027129017 0.04274232
0.053528376 0.04695307 0.020106738 0.05588793 0.057989866 0.041148238 0.021274647 0.032945193
0.060535073 0.01548746 0.03229776 0.06484375 0.020491427 0.06070758 0.039667435 0.040570755
0.035947382 0.013958311 0.048164193 0.046456832 0.016506683 0.0842682 0.047325663 0.03501081
00000000: 0012 8f3d c1b3 503d 334d f83c 0d9a 263d
00000010: 9890 b53d bfc3 2a3d ef0b 813d 7f96 263d
00000020: 6dc9 483d 5b5a 273d 1d7b 623d fe2f 013d
00000030: c1cc b43d 457b cd3c 969b 2d3d 9fb0 603d
00000040: e595 ac3d 2200 6a3d 4985 953d 5590 b63c
00000050: a606 3a3d f8ec 833d 0ed5 773d 4efe 403d
00000060: 8c93 1f3d 4daa f33c fda3 943d 3fc0 883d
00000070: e71f 503d 54f4 2a3d f88e b23c ae38 0c3d
00000080: de6a 783d e6e1 333d ba28 853d 52e0 4e3d
00000090: 9b45 da3d ab32 923d c6e7 5c3c eca7 973d
000000a0: f55e 973d 4fa0 ba3c 60d5 df3c 170e 9c3d
000000b0: 825d 103d d34d 983d 90fe 813d 3e34 1e3d
000000c0: f543 3b3d 8312 bd3d 27fc f33c a78e 5b3d
000000d0: 93ff d63d ce45 733d 2c58 b73d 2fc0 b03c
000000e0: 83b5 d23d c74e 033e 2685 a93d a38e a33c
000000f0: 24dd 053e 41f7 363d 93ba fe3c 656c f13c
00000100: 012f 793d 6c87 d53d 1101 b33c 2e73 9e3d
00000110: 9fb1 143d 730c 1c3d 1100 b03d 3c8e 973d
00000120: be49 5d3d a9da cb3d 27ee 893d e51a 753d
00000130: 9288 7f3d fa31 4b3d 2ef2 a63d b0d7 0f3d
00000140: 5ced 723d 8bbd b23d 2e6f 0f3d 3c30 a03d
00000150: 52dc 3f3d a9a3 4b3d de0a 033d 490e 143d
00000160: 0f9b 223d f6f4 413d ffb5 423d d7cd c33c
00000170: a650 cb3d 3307 a03d 4e70 183d 08b9 9c3c
00000180: ac82 533d 88ab 8f3d f079 db3c ab9b 5f3d
00000190: 4597 553d 2321 4a3d b208 9b3d 42e0 373d
000001a0: 3a96 b63c 973d 513d d40a 883d 05e7 5e3d
000001b0: 31c0 393c 11ba 0c3d e2b0 883d 1153 383d
000001c0: 49a9 263d 8d01 9e3d d316 603d 1eec e73c
000001d0: fb13 a63c 8fda b73d 092f 883d 50d3 593d
000001e0: f29f d73c aa1f e13b 4da5 e93d 3204 ba3d
000001f0: cf42 373d b1a0 033d 6807 ef3d 2367 073e
00000200: bfab 873d 7a2e 2f3d 674e 793d e039 9e3c
00000210: be1e 6c3d 72f9 483d c290 2c3d ed5c c53d
00000220: 9905 153d 257e 953d fcc1 2a3d 24b9 a33d
00000230: bbd2 893c 85f2 cb3c 0bdb ff3c cbec 563d
00000240: c827 633d 3fad 813d 9812 8c3d 711c 163d
00000250: b3a5 013e 40e9 033d 024a fa3d 414f 4e3d
00000260: 1c82 4d3d 8d03 f33d 98d9 b33d 8907 633d
00000270: 7b50 3b3d a0cd ed3c ed95 473d a574 9b3d
00000280: cdb7 8a3c cc07 1b3d 2f55 833d 667f e33d
00000290: 504e 163d b91f 403d 0214 0d3e 0e9c 643d
000002a0: 275c 933d cb03 3a3d b667 003d 9fce 823d
000002b0: 0992 733d 55a7 213d dc55 643d 5283 703d
000002c0: ab60 f43c 7f9c 1e3d 8b4a 3e3b 25b6 483d
000002d0: 972c 143b 44cb 833d 3016 cd3c 80b6 7f3d
000002e0: 7e25 813d f9f3 9c3d 1094 7e3d e839 ec3d
000002f0: d139 8a3d 6a6d 4d3d 6e15 713d 4df7 423d
00000300: 7900 093e 7572 bf3d 7f69 213d 62dc c53d
00000310: 887a 713d 4602 443d 7b35 0f3d b952 183d
00000320: b44e 223d 9650 de3d d7c8 b43d b967 8d3d
00000330: b33e dd3c 0928 533d bfba 6f3d 086e 9e3d
00000340: 49c0 103d 9ae9 e73c 45d7 193d 3eef 4e3d
00000350: df37 503d 36b9 9c3c b2ee cf3d eb0a 6e3d
00000360: 44b9 973d 277a 683d 5dad 063d 7239 9c3c
00000370: e825 b73c 3e56 283d 0af9 533d a5da bf3c
00000380: fa41 3c3d 3fe1 d33c 4b91 493d a5b9 6a3d
00000390: 3844 0f3d 52cf e03d ac3d de3c 9212 2f3d
000003a0: 9240 5b3d dd51 403d e3b6 a43c beea 643d
000003b0: c886 6d3d 0e8b 283d 2b48 ae3c 8af1 063d
000003c0: a0f3 773d 1ebf 7d3c a84a 043d cdcc 843d
000003d0: a3dd a73c 83a8 783d 527a 223d 852d 263d
000003e0: 903d 133d 66b1 643c d147 453d 8549 3e3d
000003f0: 0639 873c ce94 ac3d 8ed8 413d 7f67 0f3d

fc2.weight f4 [128, 256]
0.013771679 -0.006676038 0.012618458 0.07795355 -0.048181053 -0.031082958 -0.07589529 0.0503688
0.012263774 0.032453634 -0.10842314 0.016771741 0.0067784474 -0.026422763 -0.024116911 0.029513381
-0.004191941 -0.058509402 -0.03749098 -0.08853531 -0.0057366504 0.09527984 -0.018614681 -0.004747381
-0.009811398 -0.115380935 0.081443146 -0.033286862 -0.085552774 -0.08598569 -0.0018585294 -0.007533508
0.008893456 0.06433557 -0.040501703 0.068944044 -0.04751557 0.057644643 0.09397853 -0.09517957
-0.100406125 -0.099243745 0.029330434 0.117450885 0.054251134 -0.0064137634 0.07420975 -0.0009549655
0.045550283 0.059737206 0.037504036 0.0026054909 0.0498025 -0.04264559 0.066687286 0.03933451
-0.018050974 -0.050979108 -0.032611374 0.06774205 -0.015625404 -0.0021412114 0.04298937 -0.042154025
0.031590525 0.027796132 0.101924255 -0.0039778682 0.058540486 -0.034638837 -0.053448357 0.06944675
-0.16000631 -0.06523958 -0.005345364 -0.04282742 0.02941165 -0.0039546704 -0.028047785 -0.006859106
-0.01946623 -0.05822057 -0.066134125 -0.0070109265 0.026658963 -0.066798754 0.014618637 -0.02271879
-0.014892671 -0.11164207 0.053128816 0.0008491767 -0.07477656 -0.12786719 0.0124810785 0.020793444
0.011551561 0.019422527 0.068511784 -0.019905772 -0.022015188 -0.08810557 -0.0783701 -0.05527906
0.040114943 0.08064104 0.027667245 0.07552754 -0.0278211 0.014555221 -0.029146511 -0.003827101
-0.052406073 0.01781335 -0.06186072 -0.047056727 0.017433252 0.106326975 0.06499165 0.05502052
0.02957926 -0.043673642 0.0063201063 0.06293738 -0.004593999 0.0052102734 -0.005542436 -0.07439608
0.06489418 -0.10287863 -0.059330046 0.06903968 -0.06087211 0.0006049051 -0.14978945 -0.021515746
0.07446491 -0.11589397 0.05566329 0.03436193 -0.0010934253 -0.017844154 0.06491371 0.06396763
0.00459899 -0.015478843 0.050779745 0.044497445 -0.0022317504 -0.034762997 0.06361556 -0.089161016
0.03244652 -0.06398119 -0.124599636 -0.004548105 0.014413481 -0.08090149 -0.054137085 -0.09472425
0.027066138 0.04141131 -0.082941905 -0.105652325 -0.14963876 0.029160239 -0.08964862 0.025244942
-0.17047647 -0.117315255 -0.006268783 0.03373344 -0.025857663 0.044567365 -0.1040305 0.0060477103
0.023000855 -0.017996522 -0.08521178 0.00016361022 -0.17634289 0.082445495 0.03100752 -0.04534105
0.03548747 0.027695155 -0.048014842 0.022974564 -0.024244288 -0.073587574 0.02264188 -0.083444186
0.010259813 -0.044367682 0.09487605 0.03469852 -0.015740577 -0.021863986 0.025034046 0.12521295
-0.07497951 0.049652483 -0.021241393 -0.07925613 0.055573802 -0.053601015 0.043995243 0.082367495
-0.03314584 -0.10118205 0.03393907 0.07124159 0.023710942 -0.118717924 0.012340012 -0.009944214
-0.05065425 -0.028845474 0.030558351 -0.11692774 0.084891714 -0.00036968614 -0.05182979 0.06363018
-0.030019164 -0.1056046 -0.023480784 0.009887481 -0.0057782847 0.058572575 0.044307403 0.01875102
-0.03070919 0.044237472 0.061238192 -0.02883552 -0.0468634 0.0113703 -0.10897671 0.08025116
0.06467847 -0.011085395 0.031942785 0.064042486 -0.0050430573 -0.035445023 0.081740744 -0.017929645
-0.028088018 0.020931603 -0.08011306 0.05998295 0.017476361 0.030523084 -0.044864718 0.022244992
00000000: 9ca2 613c aac2 dabb a6bd 4e3c 1ca6 9f3d
00000010: 7f59 45bd b0a1 febc fd6e 9bbd 844f 4e3d
00000020: ffed 483c 1aee 043d f40c debd e464 893c
00000030: bd1d de3b 8d74 d8bc d490 c5bc 0cc6 f13c
00000040: 8d5c 89bb 8ea7 6fbd 2490 19bd 0052 b5bd
00000050: 83fa bbbb 1422 c33d d17d 98bc eb8f 9bbb
00000060: fcbf 20bc d74c ecbd aacb a63d ce57 08bd
00000070: 4b36 afbd 4419 b0bd e699 f3ba a5db f6bb
00000080: dcb5 113c 5ec2 833d 1de5 25bd 8932 8d3d
00000090: b09f 42bd ca1c 6c3d d177 c03d 82ed c2bd
000000a0: baa1 cdbd 4e40 cbbd 6146 f03c 178a f03d
000000b0: 7036 5e3d 8c2a d2bb 48fb 973d a656 7aba
000000c0: ef92 3a3d 00af 743d d59d 193d e2c0 2a3b
000000d0: b5fd 4b3d 24ad 2ebd 5893 883d 391d 213d
000000e0: a3df 93bc 78cf 50bd 8193 05bd 58bc 8a3d
000000f0: d900 80bc 9153 0cbb 9f15 303d b3a9 2cbd
00000100: 1165 013d b7b4 e33c aabd d03d c758 82bb
00000110: 26c8 6f3d 74e1 0dbd aaec 5abd 193a 8e3d
00000120: b2d8 23be 549c 85bd 2a28 afbb ce6b 2fbd
00000130: b3f0 f03c 2e96 81bb 78c4 e5bc 5ac2 e0bb
00000140: a577 9fbc b178 6ebd 5471 87bd eabb e5bb
00000150: e663 da3c c9cd 88bd 0283 6f3c c21c babc
00000160: 6400 74bc 99a4 e4bd 9a9d 593d 499b 5e3a
00000170: 7424 99bd 9eef 02be 707d 4c3c 0357 aa3c
00000180: c242 3d3c fe1b 9f3c e84f 8c3d 6e11 a3bc
00000190: 3259 b4bc b170 b4bd 8180 a0bd 4c6c 62bd
000001a0: 914f 243d 2127 a53d 6ba6 e23c 2fae 9a3d
000001b0: 13e9 e3bc 0679 6e3c aac4 eebc 1ad0 7abb
000001c0: c0a7 56bd 4ded 913c ab61 7dbd 8ebe 40bd
000001d0: 2ed0 8e3c f5c1 d93d 581a 853d 325d 613d
000001e0: 3450 f23c 22e3 32bd e518 cf3b 50e5 803d
000001f0: 4289 96bb f1ba aa3b 539d b5bb f95c 98bd
00000200: 3de7 843d 08b2 d2bd 1004 73bd ad64 8d3d
00000210: 0955 79bd 7e92 1e3a 6862 19be ca41 b0bc
00000220: 0f81 983d d159 edbd 31ff 633d 18bf 0c3d
00000230: 4451 8fba e72d 92bc 7bf1 843d 7601 833d
00000240: 20b3 963b f99a 7dbc 6cfe 4f3d f442 363d
00000250: 8f42 12bb a563 0ebd e048 823d 0d9a b6bd
00000260: a4e6 043d 9208 83bd 182e ffbd 4508 95bb
00000270: 8526 6c3c aeaf a5bd d9be 5dbd cafe c1bd
00000280: ceb9 dd3c e89e 293d 72dd a9bd 3f60 d8bd
00000290: e73a 19be 74e1 ee3c b299 b7bd 7bce ce3c
000002a0: 6291 2ebe fb42 f0bd 5d6a cdbb 132c 0a3d
000002b0: 73d3 d3bc 458c 363d f10d d5bd df2b c63b
000002c0: 4a6c bc3c 716d 93bc 8483 aebd c98e 2b39
000002d0: 3b93 34be 2fd9 a83d 7c03 fe3c 89b7 39bd
000002e0: 4f5b 113d f3e0 e23c 36ab 44bd 2735 bc3c
000002f0: f59b c6bc 15b5 96bd 777b b93c c9e4 aabd
00000300: c618 283c e3ba 35bd 604e c23d 0920 0e3d
00000310: 62f2 80bc 1a1c b3bc 3314 cd3c d337 003e
00000320: db8e 99bd 6760 4b3d 6e02 aebc 0a51 a2bd
00000330: 5ba1 633d bd8c 5bbd 5b34 343d 4ab0 a83d
00000340: efc3 07bd 8938 cfbd b203 0b3d 1ce7 913d
00000350: 733d c23c 6222 f3bd c32d 4a3c 0eed 22bc
00000360: d57a 4fbd 584d ecbc 8255 fa3c d077 efbd
00000370: b5db ad3d 6fd2 c1b9 794b 54bd 8a50 823d
00000380: c0ea f5bc 3947 d8bd c65a c0bc 1aff 213c
00000390: c457 bdbb cce9 6f3d ae7b 353d bd9b 993c
000003a0: d791 fbbc 5a32 353d e6d4 7a3d 7838 ecbc
000003b0: d6f3 3fbd 7f4a 3a3c 2e2f dfbd b85a a43d
000003c0: 2576 843d 849f 35bc 70d6 023d b528 833d
000003d0: 3b40 a5bb cd2e 11bd b167 a73d 31e1 92bc
000003e0: d818 e6bc c178 ab3c 5112 a4bd afb0 753d
000003f0: 962a 8f3c 8c0b fa3c 11c4 37bd 213b b63c

fc2.bias f4 [128]
0.044370294 0.03413797 -0.0114104645 0.01582713 0.021470955 -0.032377187 0.0071205064 0.04777707
-0.054820843 0.042249274 -0.023608828 0.05800979 0.000362364 0.0021144045 0.056057632 0.03204745
0.04657292 0.028038213 0.006223659 -0.0063750073 0.03889868 -0.023068147 0.023113739 0.03957952
-0.03148959 0.020526107 0.0029914386 -0.0623693 -0.03603332 -0.03935081 -0.019469013 0.05783129
0.037346467 -0.049421653 -0.048214238 -0.00832746 -0.0007474427 -0.028038459 0.0006941793 0.031354442
0.020889606 -0.047647174 -0.022697836 0.027909601 0.02633305 -0.008984673 -0.03459023 -0.0023427417
0.0040973 0.02034446 -0.029054066 -0.04464458 -0.03337965 -0.0015722349 0.0040269103 -0.0041610003
-0.033608146 0.04907873 -0.02778498 0.0038836235 -0.0084356675 -0.010978573 -0.0225628 -0.0030646478
-0.0126318345 0.055950712 -0.06044354 -0.036291696 -0.050193485 0.008179424 -0.009561693 0.04646066
0.033786733 0.0008556039 0.010773677 0.0498485 0.026345331 0.022425989 -0.037437256 -0.051064122
0.03554765 -0.039883416 -0.045061436 -0.032531608 -0.039239686 -0.02252984 0.051228523 -0.045409784
0.0482803 0.044401985 0.030355625 0.060157523 -0.027130544 -0.030730383 -0.040378865 0.02145324
-0.017673986 0.0016686516 -0.04952747 0.05930529 0.0035680302 -0.010821058 0.04886467 0.06192297
-0.06158964 0.0022943919 -0.056268934 -0.047842544 0.007800484 0.027023258 -0.03197843 0.021837045
0.018748552 0.04374289 0.02364934 0.03830783 0.0072489223 -0.062020615 -0.026633825 -0.0043117823
-0.05291051 -0.04385779 -0.043585878 0.0120383 0.014583505 -0.019982308 -0.028815344 0.03466283
00000000: a0bd 353d 42d4 0b3d f5f2 3abc e6a7 813c
00000010: dbe3 af3c f19d 04bd 2353 e93b e4b1 433d
00000020: d28b 60bd 930d 2d3d 4d67 c1bc ac9b 6d3d
00000030: acfb bd39 d291 0a3b b09c 653d 3044 033d
00000040: 3fc3 3e3d 65b0 e53c d6ef cb3b 70e5 d0bb
00000050: 3954 1f3d 69f9 bcbc 0659 bd3c 221e 223d
00000060: 3afb 00bd 5e26 a83c 030c 443b f376 7fbd
00000070: ad97 13bd 512e 21bd 7b7d 9fbc 81e0 6c3d
00000080: 9cf8 183d 5c6e 4abd 4b7c 45bd e66f 08bc
00000090: 08f0 43ba e9b0 e5bc 96f9 353a 846d 003d
000000a0: ae20 ab3c af29 43bd d0f0 b9bc ada2 e43c
000000b0: 69b8 d73c 7334 13bc 7cae 0dbd af88 19bb
000000c0: a542 863b 6da9 a63c cb02 eebc 3cdd 36bd
000000d0: 1ab9 08bd 7313 ceba 2cf4 833b 0059 88bb
000000e0: b2a8 09bd c706 493d 549d e3bc 6484 7e3b
000000f0: c135 0abc 79df 33bc 9fd5 b8bc 42d8 48bb
00000100: c1f5 4ebc 932c 653d a593 77bd 9aa6 14bd
00000110: af97 4dbd fe02 063c a6a8 1cbc 884d 3e3d
00000120: f563 0a3d 9b4a 603a 1484 303c f12d 4c3d
00000130: 2ad2 d73c b5b6 b73c cf57 19bd 9d28 51bd
00000140: 6a9a 113d cb5c 23bd 5792 38bd dd3f 05bd
00000150: cbb9 20bd 8090 b8bc 00d5 513d 9cff 39bd
00000160: 90c1 453d dbde 353d 5cac f83c bc67 763d
00000170: e040 debc 49be fbbc 4f64 25bd b5be af3c
00000180: 09c9 90bc a8b6 da3a 51dd 4abd 1bea 723d
00000190: 9dd5 693b cf4a 31bc 5226 483d f1a2 7d3d
000001a0: 6b45 7cbd 825d 163b 417a 66bd 8bf6 43bd
000001b0: 349b ff3b e15f dd3c d0fb 02bd 9ae3 b23c
000001c0: 9096 993c bf2b 333d 43bc c13c ace8 1c3d
000001d0: 5e88 ed3b 5409 7ebd 2e2f dabc da49 8dbb
000001e0: b1b8 58bd 3aa4 33bd 1b87 32bd 4a3c 453c
000001f0: a7ef 6e3c f0b1 a3bc 280e ecbc 9dfa 0d3d
