checkpoint_critic.pth (torch_old, 436724 bytes, 11 tensors)

bn0.weight f4 [33]
000000 04 12 87 3f fd f6 62 3f 08 96 84 3f 87 3f df 3e
       1.0552373 0.88658124 1.0358286 0.43603155
000010 3d 38 fe 3e a7 50 d7 3e 64 9d 02 3f 95 47 9f 3e
       0.4965228 0.4205372 0.5102141 0.311093
000020 9b a8 e0 3e eb b2 f7 3e f5 84 24 3f 12 8c 08 3f
       0.43878636 0.4837869 0.64265376 0.5333873
000030 54 23 21 3f 2a 56 ae 3f fa 63 89 3f 6c c8 ab 3f
       0.6294453 1.3620045 1.0733635 1.3420539
000040 81 94 39 3f 34 2f 4c 3f aa ff 2d 3f cf 76 5b 3f
       0.72492224 0.79759526 0.6796824 0.8572816
000050 95 eb bd 3e 9c a1 b3 3e 5f ab 9f 3e 77 d7 86 3f
       0.37093797 0.35084236 0.31185433 1.0534505
000060 b5 1a 54 3f 3c 6d 80 3f e9 94 ac 3f 00 00 80 3f
       0.8285325 1.0033336 1.3482944 1.0
000070 a3 a0 a8 3f 00 00 80 3f 00 00 80 3f 00 00 80 3f
       1.3174022 1.0 1.0 1.0
000080 c1 a0 a7 3f
       1.3095933

bn0.bias f4 [33]
000000 b7 a1 9e 3c 1d 2d 0c be 9c 4a c5 3d 1c 53 65 3e
       0.019364221 -0.13689084 0.09633371 0.22394985
000010 36 a2 8a 3d cc fc a0 bc bc 14 ac bd 23 36 08 bd
       0.067692205 -0.019651793 -0.08402392 -0.033254754
000020 e3 1c 30 3c 08 94 a2 3c ae d0 3a 3d d8 38 b7 bc
       0.010749075 0.019845977 0.04560917 -0.022365972
000030 98 19 d8 bc 61 1e 5b 3d 17 fe bd 3a cd 32 95 3c
       -0.026379392 0.05349577 0.001449528 0.0182127
000040 fd df 00 bb dc 51 fa 3c a6 be 88 bc 0a c7 f4 bd
       -0.0019664757 0.030556612 -0.01669247 -0.11952026
000050 3e f7 6b 3c 2b d0 d5 3d 1c 66 92 3c c9 c2 4b 3d
       0.014402209 0.104400955 0.017870955 0.04974631
000060 45 10 1e 3c 15 36 b3 bc c7 75 b1 bc b6 9e 80 bb
       0.009647434 -0.021876374 -0.021662606 -0.00392517
000070 8f e8 97 bc 75 8d f5 be 7d 0b 6d be 98 d2 cc 3e
       -0.01854351 -0.47959486 -0.23148914 0.4000442
000080 85 4c 5f bd
       -0.054516334

bn0.running_mean f4 [33]
000000 a1 b0 d8 3e ef 83 2c c0 58 f6 cd bd bc 2f 61 3f
       0.42322257 -2.6955526 -0.10056752 0.8796346
000010 bb ac 64 3d 73 c8 c3 3b 05 c1 41 bc 20 71 d7 bb
       0.05582879 0.005974823 -0.011825805 -0.006574765
000020 3d 04 3a bc a4 9a ff b8 c5 5e 81 bc 13 60 ad bb
       -0.01135355 -0.000121881516 -0.01579226 -0.005290994
000030 98 90 fd 3c 99 28 d2 3e fb c2 27 c0 60 45 8a bd
       0.030952737 0.410466 -2.6212757 -0.067515135
000040 9a 99 0d bd 35 c4 05 3d 6f 86 9a bd 09 ab 28 bf
       -0.034570314 0.03265782 -0.075451724 -0.6588598
000050 12 14 29 3d 86 ab 0f 3c c4 b4 9b bc a7 9d 47 bd
       0.041278906 0.008768922 -0.019007094 -0.048734333
000060 d0 2a dd 3d 6c 06 70 3c cd 2c 40 3d fc ff 7f bf
       0.107991815 0.014649969 0.046917725 -0.99999976
000070 90 ca 44 3d 00 00 00 00 fc ff 7f 3f 00 00 00 00
       0.04804474 0.0 0.99999976 0.0
000080 fd fd ec bb
       -0.007232426

bn0.running_var f4 [33]
000000 bd 0e 63 40 34 06 dd 3e d9 f5 93 40 d0 c6 4a 3d
       3.5477746 0.43168795 4.6237607 0.04950601
000010 af 7f 6a 3d cb d1 6c 3c 03 95 d0 3d a5 f0 80 3e
       0.057250675 0.014454315 0.10184672 0.25183597
000020 0a 1f 50 3d a7 4f ac 3d 4b 98 e2 3f 04 05 3e 3f
       0.05081085 0.0841363 1.7702726 0.74226403
000030 49 8a 0b 40 79 7d 7f 41 a7 af 90 3f b6 74 b1 41
       2.1803153 15.968133 1.1303605 22.181988
000040 73 b6 a3 3d 6c 03 f3 3d ad 37 81 3d ab be 97 3e
       0.07993784 0.11865887 0.063094474 0.29637656
000050 bf 14 62 3f e1 c0 94 3e db 08 d5 3e b6 9b bf 40
       0.88312906 0.29053405 0.4160832 5.9877577
000060 95 43 37 40 78 e9 08 41 0c c1 ff 41 04 00 00 00
       2.8634999 8.556999 31.969261 6e-45
000070 46 3e 00 42 04 00 00 00 04 00 00 00 04 00 00 00
       32.060814 6e-45 6e-45 6e-45
000080 86 0d ab 3e
       0.33408755

fc1.weight f4 [256, 33]
000000 72 05 f8 bd 5f 31 3b bd 98 54 f7 3d 65 6a 45 ba
       -0.121104136 -0.04570138 0.12076682 -0.00075308076
000010 cf 4c f3 3b 73 7d 87 bc e2 a7 7b bd 89 ea 97 3d
       0.007424928 -0.016539311 -0.061439402 0.07417781
000020 8d 60 29 bd d2 aa 34 3b 6b 90 56 3c e2 17 a0 3c
       -0.041351844 0.0027567637 0.013095955 0.019542638
000030 24 7f ad 3d 86 a8 0d 3d f3 1d f0 3c 16 88 40 bd
       0.08471516 0.034584545 0.029311156 -0.04700478
000040 5f 6d 9f bd 60 b5 f9 bc c7 07 3f bc b2 c3 35 3c
       -0.07784533 -0.030481994 -0.011659569 0.011094021
000050 e5 8f 43 3d e9 8f a5 bc 4f 04 8b 3d 42 b8 00 3e
       0.04774465 -0.020210223 0.06787931 0.12570289
000060 d7 95 4b 3d 88 a2 af bd ce 57 bc 3d 2c 23 81 3d
       0.049703445 -0.08575922 0.09196435 0.06305537
000070 a2 7d 97 bd c8 72 9c 3d 1b 61 8f 3d 55 00 55 bc
       -0.073970094 0.0763908 0.07000943 -0.013000567
000080 5c d1 0a bd bc 6c da 3d 03 12 ac 3d d3 2d bb 3d
       -0.033891067 0.10665271 0.08401873 0.091396
000090 cf cf f0 bc a9 f1 c9 3d 78 97 a0 3d bc 3b b6 3d
       -0.029395966 0.09860546 0.0784139 0.08898112
0000a0 d5 9d bd 3d ff d9 af 3c 35 b9 0b 3d 0d 1c 9a 3d
       0.0925862 0.021466253 0.034112174 0.075248815
0000b0 cf 1b 5d 3d 76 cd 88 3d 1d 89 0c bd da d3 61 bd
       0.0539816 0.066798136 -0.03431045 -0.055133678
0000c0 c9 17 96 bc f9 8d a1 3d f2 77 5a bb ce 36 b4 bd
       -0.018321889 0.07888407 -0.0033335653 -0.08799516
0000d0 85 2b c8 bd ee c6 f2 3c b3 16 66 3d 8c ae 8d bd
       -0.09773926 0.029635873 0.05617399 -0.06918058
0000e0 0f 2d e1 bc 05 71 be bc 29 4a a6 3d b4 9a bd 3d
       -0.027487306 -0.023247251 0.08119614 0.09258023
0000f0 6c a7 9a 3c 05 30 3b bb aa 65 b8 3d 2e fa bb 3d
       0.018878661 -0.0028562557 0.09003766 0.09178577
000100 c8 20 da bd 32 4f ad 3c e9 12 1f 3c 0b 9a 2c bd
       -0.10650784 0.021155927 0.009709098 -0.042139094
000110 9e 08 83 bc 77 25 6c bd 84 fd 49 3c 3f 82 a2 3c
       -0.01599532 -0.057652917 0.012328509 0.019837497
000120 18 3f b4 3d 88 33 92 3d 4c f6 30 bd d9 7a 62 bd
       0.08801097 0.07138735 -0.043203637 -0.055292938
000130 41 8e ad 3d a6 fa b9 3c 7d 3a a4 3d d0 3a c1 3d
       0.084743984 0.022702526 0.08018968 0.09435046
000140 ad 69 ed 3d 0d 2e a3 3c 35 87 dc bd 30 39 cb 3d
       0.11592422 0.01991942 -0.10767976 0.09923017
000150 c9 f6 89 bc 5c e0 8c 3d f4 1e 5d bb 51 03 c0 bd
       -0.01684131 0.06878731 -0.0033740373 -0.093756326
000160 a3 0b 36 3d fe da 7d bd 81 2a 1d 3d 26 99 1b be
       0.04444469 -0.061976425 0.038370613 -0.1519514
000170 6f 9c 75 bd bf f2 83 3d 59 11 05 be 5a 55 48 3e
       -0.05996364 0.064427845 -0.12994899 0.19563809
000180 8f 8b 02 3e 7a 1b 31 be ed d3 93 3d 37 d6 10 bd
       0.1274855 -0.17295638 0.07218156 -0.03536054
000190 aa ca 39 bc 48 2c 8e bd ff 2d fa bc 86 c2 bd bd
       -0.011339823 -0.0694204 -0.03053951 -0.09265618
0001a0 e0 25 34 bd 89 51 86 bb c1 9c 1e 3d ad 16 76 3d
       -0.043981433 -0.004099075 0.03872371 0.06008022
0001b0 6d 54 b3 bd 23 2f 4f 3c 5d 29 7e 3d 9a f3 04 bd
       -0.08756337 0.012645516 0.062051166 -0.03245888
0001c0 2e 48 48 3d b7 ae 13 3d 78 93 10 3d 47 18 36 3b
       0.04889696 0.036055293 0.035296887 0.0027785467
0001d0 d6 d5 f8 3d d4 ff 5b 3d b5 ca 9c 3d 4c 5b 70 3c
       0.12150161 0.053710774 0.07655851 0.014670204
0001e0 29 a4 9c 3d f3 6e 0a bd dd c5 a5 39 eb f5 58 3d
       0.076484986 -0.033797216 0.00031618672 0.0529689
0001f0 d4 9c 9c 3d a1 61 86 3d 0e 3d 98 3d 82 7a 36 be
       0.076471 0.0656159 0.0743352 -0.1782017
000200 26 8b 43 3e d3 f6 c4 3d 79 91 04 be 59 84 0e 3e
       0.1909605 0.096173905 -0.12946118 0.13917674
000210 a6 fb 0d 3d b0 7f 02 be 55 96 12 3e 9e 7a 33 bc
       0.03466382 -0.12744021 0.1431516 -0.010954527
000220 cf a3 cf 3c 56 48 8a bc 0e 1a 57 bd b1 0c 17 3d
       0.025346665 -0.016880196 -0.052515082 0.036877338
000230 75 b9 c5 bc df 75 5a ba 4a 91 6c 3b 74 6d a8 bd
       -0.024136284 -0.0008333604 0.0036097341 -0.082240015
000240 bf d6 01 3c c5 c7 bb bd b9 e5 3c 3d 3e 72 fd bd
       0.007924735 -0.091689624 0.046117518 -0.123753056
000250 3b d5 4a 3d 1d 81 3a bd a9 7b af 3c c3 fa 18 bd
       0.04951976 -0.04553329 0.02142127 -0.03734852
000260 6f 97 96 bc 85 4f 80 3c 64 f0 28 bd a7 3f ab 3c
       -0.018382756 0.015662918 -0.04124488 0.020904375
000270 69 ca e1 3c 18 e3 97 3a b9 c2 d2 3d b5 7b 9a bc
       0.027562337 0.0011588065 0.10291047 -0.018857816
000280 bd 03 da bc f0 d3 0d 3d 03 ff 23 bc 5d dc da bc
       -0.02661311 0.034625947 -0.01000953 -0.026716406
000290 31 d9 21 bc d7 66 d0 bd 15 51 4c 3d 67 c3 90 bd
       -0.009878443 -0.10175865 0.049882013 -0.0706852
0002a0 97 3a 3a 3d 16 6f bf bd 23 9d 81 3d 85 32 eb 3c
       0.045466032 -0.0934736 0.063287996 0.028710613
0002b0 9b 17 95 3d fd e4 e9 bd d1 b5 26 3b 8b b1 13 3a
       0.07279893 -0.11420629 0.002543796 0.0005634061
0002c0 bb 36 fc 3c f8 f7 97 bd b8 ae ee 3c fd 48 6b 3b
       0.030787816 -0.07420343 0.029136047 0.0035901659
0002d0 c7 b7 20 3d 95 17 fd bc 61 46 78 3d 6a b0 6f bc
       0.039237764 -0.030895034 0.060613994 -0.014629463
0002e0 bc 0e 15 bd 7e 9d 7d bd 48 71 11 be 8e 23 9e bc
       -0.036391005 -0.061917774 -0.1420337 -0.019304063
0002f0 ba 30 ef 3d 62 99 18 bc db 32 35 3e 34 d1 3b 3e
       0.11679216 -0.009313913 0.17695181 0.18341523
000300 5d 3c e1 3c f4 58 f7 3d b5 94 df 3c 10 b4 b1 3d
       0.027494604 0.12077513 0.027292589 0.08676922
000310 e3 c9 30 bd 7c fd b0 bd 5e ec 8b bd e1 94 42 bd
       -0.043161284 -0.08642098 -0.06832193 -0.047505263
000320 20 4c 18 bd 18 dd 1d bd 75 2d ff bd 2a a6 73 bc
       -0.037181973 -0.03854093 -0.12459842 -0.01487116
000330 04 4b aa bd f8 fb c3 3a 23 8e 04 3e a9 af 02 be
       -0.08315089 0.0014952412 0.12944846 -0.12762322
000340 d4 76 0c bd eb a7 0f 3d a8 e6 6c bc 56 c1 02 3e
       -0.03429301 0.03507225 -0.01445929 0.12769064
000350 5c b3 c3 3c e1 62 11 bd 8c f1 4d bd 3e 13 5a bd
       0.023889236 -0.03549469 -0.050279185 -0.053241007
000360 32 ea a2 bd 9c 44 0a 3e 00 c0 a9 3c 0d 06 aa bc
       -0.079548255 0.13502735 0.020721436 -0.020754838
000370 ef d9 67 3c 1a 6f 03 3e 71 ba ad bd bd 25 0b be
       0.0141510805 0.1283535 -0.084828265 -0.13588615
000380 0d 37 31 bd 4c 06 ca 3c 01 f8 bd 3d 6f 06 bc 3d
       -0.04326539 0.024661206 0.092758186 0.091809146
000390 15 08 71 3d 83 e8 7e bd f2 35 6d 3d cb ba 01 3e
       0.0588456 -0.06223346 0.057912774 0.12668912
0003a0 5a 55 18 3c 70 68 b2 bd 97 06 81 bd b5 68 16 3d
       0.009297693 -0.08711326 -0.06300085 0.03672095
0003b0 42 ed d3 bc 59 91 ad 3c 07 87 c0 3d 56 a1 c4 bd
       -0.02586997 0.021187471 0.094007544 -0.09601085
0003c0 02 e7 93 bd 10 fd df 3d 64 de 12 3b c5 10 14 3d
       -0.072217956 0.1093694 0.0022410387 0.036148805
0003d0 21 20 08 be 9d c0 e4 3b 99 34 1f 3e 68 f0 d6 3d
       -0.13293506 0.006980969 0.15547408 0.104950726
0003e0 e2 22 cc bd 4e 11 25 bb fc ee 86 bc 54 5f dd bc
       -0.09967591 -0.0025187316 -0.016471379 -0.027022995
0003f0 e4 de e7 bb ba e4 31 3d f5 42 4e bd 83 74 47 bd
       -0.007076131 0.04343102 -0.050356824 -0.0486951

fc1.bias f4 [256]
000000 11 2b fe 3d 27 eb b4 bd 3b ec a8 bd 25 ec 29 be
       0.12410558 -0.08833914 -0.082481824 -0.16593988
000010 f1 f2 1d 3e 60 20 87 bd f8 88 4c be b9 55 bd 3d
       0.15424706 -0.06597972 -0.19974124 0.09244866
000020 84 f6 62 3d 04 96 a7 3d 85 43 b0 bc 30 e6 75 be
       0.055410877 0.0818291 -0.02151657 -0.24013591
000030 50 16 5f be 3e a6 0f bd e8 4f 59 3d 6d be 77 3c
       -0.21785855 -0.03507065 0.05305472 0.015121085
000040 51 ad 86 be 9f ad ca b9 e0 aa 7d be 92 61 7e 3d
       -0.26304105 -0.000386578 -0.24772215 0.06210477
000050 8b 34 53 bd ad aa 86 bd 05 c6 8e bc 68 6f 98 be
       -0.05156378 -0.065755226 -0.017428407 -0.29772496
000060 05 94 16 be 78 ac ba 3c a8 34 40 be fd 6b c7 bd
       -0.14704902 0.022787318 -0.18770087 -0.09737394
000070 b8 a0 6f be 43 29 df bc 8e fe 11 be cb a0 ad bd
       -0.23401153 -0.027241355 -0.14257261 -0.084779344
000080 3d 6f a9 bc 47 5c 80 be f0 80 6f bd 3f 0f 40 be
       -0.020682925 -0.25070402 -0.058472574 -0.18755816
000090 41 56 5c 3d 1d 55 00 be 84 3a 03 3e 9d d1 8f be
       0.053793196 -0.12532468 0.1281529 -0.2808961
0000a0 e6 fe f2 bc 1d cf 10 3e c2 90 5c be d0 55 fd 3c
       -0.02966256 0.14141507 -0.21539596 0.030924708
0000b0 f4 e2 2a be b0 ba f6 bc b5 7a 27 bc 3d 0d 7a bc
       -0.16688138 -0.030118316 -0.010222127 -0.015261945
0000c0 e4 be 64 3c 40 dd 81 bd 2e 0c f9 3d e9 a1 29 be
       0.0139615275 -0.06341028 0.12160526 -0.1656567
0000d0 ad 4e ee 3d 01 91 6b be 3a b8 12 3e 95 a4 cc bd
       0.116361 -0.23004533 0.1432809 -0.09992329
0000e0 28 fb 40 be 6a 3e 46 be 35 22 f9 bd ca aa 82 bd
       -0.18845809 -0.19359747 -0.121647276 -0.06380232
0000f0 89 c6 a6 3d 03 62 ce bc c6 78 8e bd d8 6a 19 be
       0.08143336 -0.02519322 -0.069566295 -0.14982164
000100 16 4f 76 3d 78 0d 02 bb a8 1a 8e bc 62 5d a1 3c
       0.060134016 -0.0019844454 -0.017346695 0.019697849
000110 8b bb 9d be 85 26 15 be 8e 86 8b bd 30 aa 07 be
       -0.30807146 -0.14565475 -0.06812774 -0.13248515
000120 e7 14 8d 3c 76 e4 4d 3d 9c 5e 09 be 18 79 d2 bd
       0.017221881 0.050266705 -0.13414997 -0.10277003
000130 af 31 61 bd d0 d6 0e be 47 e9 e2 3c 69 f6 3e 3d
       -0.054979023 -0.13949132 0.027699126 0.046621714
000140 3c cf 4a bd 09 e8 4d bd 55 a6 2b bd bc 71 a7 bd
       -0.04951404 -0.050270114 -0.041906673 -0.0817599
000150 60 45 92 bd 82 fd 04 be e4 00 4d be 9b 80 38 be
       -0.071421385 -0.1298733 -0.20019871 -0.18017809
000160 3e 90 ad bc 96 f9 6c be 37 d6 79 be 19 1f 2b be
       -0.021186944 -0.23142084 -0.24398123 -0.16711082
000170 50 49 1d bc f5 86 ac 3d 4b a1 17 be 11 d7 15 bd
       -0.009599999 0.084241785 -0.14807622 -0.036582056
000180 cd 80 d8 bd 5f db aa 3a 92 d5 7e 3c 4e 49 2f be
       -0.10571442 0.0013035348 0.015553849 -0.17117807
000190 3d d5 de bd 99 0a b5 3d 06 ec 06 be 46 16 50 3c
       -0.10880516 0.08839912 -0.13175973 0.012700623
0001a0 3e 4f 1a be 03 7c bd bd 45 14 49 3d 39 c7 26 be
       -0.15069291 -0.09252169 0.049091596 -0.16286935
0001b0 2f 95 d2 bd 97 0d d6 bd d6 5b 30 be aa be a0 bd
       -0.10282361 -0.10451811 -0.17222533 -0.07848866
0001c0 b5 f2 0c 3d 4a 3c 23 be 12 af fe bd 26 a9 cb 3c
       0.03441115 -0.15940967 -0.12435736 0.02486093
0001d0 75 d1 d5 bd e1 06 b6 bc 76 6a 63 be ea 19 16 bd
       -0.104403414 -0.022220077 -0.2220858 -0.036645807
0001e0 bf 69 88 3d 81 54 d5 3b dc 39 4f bd ff d3 1a bc
       0.066607945 0.006510318 -0.05059229 -0.009449958
0001f0 23 48 e6 bd 78 21 65 be 30 70 38 bd 01 b9 48 be
       -0.11244228 -0.22376049 -0.045028865 -0.19601823
000200 45 47 12 be 08 c1 a1 bd 82 b4 25 bc 0f 49 ab bd
       -0.14285 -0.07898146 -0.010113837 -0.08363544
000210 21 77 05 3d d5 c6 02 3d 80 53 1a 3e 71 07 45 3c
       0.032584313 0.031927902 0.15070915 0.0120257
000220 61 89 db bd 71 91 aa bd 79 d2 2e be 54 d5 03 bd
       -0.10719562 -0.08328522 -0.17072476 -0.032185867
000230 58 7b 67 bc 27 4a d1 bd e1 1b 01 bd 90 41 bc bd
       -0.014128529 -0.102192216 -0.031520728 -0.091921926
000240 75 80 4d be 9d 48 8a 3d e8 5a e0 bd c2 96 36 3d
       -0.20068534 0.06752131 -0.10954839 0.044577368
000250 41 ae 1c be 63 bd 6c bd 29 af aa 3d 21 01 49 be
       -0.15300848 -0.0577978 0.083341904 -0.19629337
000260 7b a4 02 3e 79 73 97 bd d6 39 8d 3d e6 f8 1e 3d
       0.12758057 -0.073950715 0.06895797 0.038811587
000270 0b 9d 88 be 18 3b 20 3d d2 11 14 be 5a db bc bc
       -0.26682314 0.039118856 -0.14459923 -0.023053814
000280 67 eb 1a be 57 6c 32 be 4d d3 db bc 5f dc 12 bd
       -0.15128861 -0.17424141 -0.026834155 -0.035854694
000290 8f 8f 38 be 51 29 89 bd c1 5e 98 3c 24 76 fe bd
       -0.18023513 -0.066973336 0.01859987 -0.12424877
0002a0 ad 67 19 be f8 c9 2a 3d 7d 17 46 be a2 7e 5b be
       -0.14980955 0.04169652 -0.19344898 -0.21435025
0002b0 40 ac 74 be ee 56 d3 bd 85 02 ca bd 8f 59 b9 bd
       -0.23893833 -0.10319315 -0.09863762 -0.09050285
0002c0 a2 1c 41 be 38 6a 2f ba 1f 87 0b bd b3 f6 72 be
       -0.18858579 -0.0006691548 -0.03406441 -0.23726921
0002d0 dd 63 be 3d 90 44 00 be 80 01 7a bd c4 5d 74 3c
       0.09296391 -0.12526155 -0.061036587 0.014914934
0002e0 45 f3 27 be 48 03 03 3d e1 95 3c be fb 1d 71 be
       -0.16401394 0.03198555 -0.1841655 -0.23546593
0002f0 5c ea 8a be 62 1f 2c be 3c d9 97 bc da 70 36 bd
       -0.27131927 -0.16808847 -0.018536203 -0.044541217
000300 81 c4 83 be 6a 84 88 be f9 b7 04 bc 37 51 e0 3c
       -0.25735858 -0.26663524 -0.008100503 0.027382476
000310 c0 00 66 be b7 3b 13 3d c7 51 36 be 8b 51 51 3d
       -0.22461224 0.03594562 -0.17804633 0.051103156
000320 39 a1 9d 3d 86 37 d8 3d 6b d4 b9 bc 24 45 94 be
       0.076967664 0.10557465 -0.022684297 -0.28959
000330 ce db 63 be 9b fc 03 3e 89 41 95 3b 07 62 48 bd
       -0.22251818 0.1288933 0.0045549315 -0.04892161
000340 d3 5b 22 be f0 ac e8 bd bf c9 59 be f4 8d 1e be
       -0.1585534 -0.1136111 -0.21268366 -0.15483838
000350 0c d1 24 bd cb a2 07 be c9 47 eb bd 23 9e 17 bc
       -0.040238425 -0.13245694 -0.11488301 -0.009254011
000360 3e 45 4f be 9b f0 4a 3b 9f 02 99 be b2 94 55 be
       -0.20241258 0.0030966166 -0.29884812 -0.20857504
000370 ed 7c 29 be 4c e2 2b 3d 44 24 38 be f3 25 4f be
       -0.16551562 0.04196386 -0.17982584 -0.2022932
000380 53 12 53 be 3c 2f 1c bd 2c 97 eb 3d 49 b1 c1 bd
       -0.20612459 -0.038130984 0.11503443 -0.094576426
000390 2f f1 1f be f6 01 46 be 25 ed 07 be 23 7c a1 bd
       -0.15619348 -0.19336686 -0.13274057 -0.07885005
0003a0 e3 25 20 bd ef 35 b1 bd 8c 41 22 3d 64 da 7f be
       -0.03909863 -0.08652865 0.03961329 -0.24985653
0003b0 20 c7 8d 3a 9d 88 76 3c 1d 1b 7c be ff b1 c2 bd
       0.001081679 0.01504722 -0.24619718 -0.09506606
0003c0 7a 4d cc bd d4 6e 2d be cb 2c 49 bd 27 6e cf bd
       -0.09975715 -0.16936809 -0.049114984 -0.10128432
0003d0 d1 5f 64 3d 4e 0e 49 3b d4 d7 a5 bd 54 f7 0f be
       0.05575544 0.0030678692 -0.080978066 -0.14059192
0003e0 2d 47 21 bd b6 a5 e9 bd b7 f3 5f be 85 1c 07 3e
       -0.03937452 -0.1140856 -0.21870314 0.13194473
0003f0 b9 6a e9 bd 25 c6 54 be 0b 5b e3 bd c6 1c 86 be
       -0.11397309 -0.20778711 -0.111013494 -0.26193827

fc2.weight f4 [256, 260]
000000 6b 9a 9b bd fc da b9 3c a7 5a 29 3d e6 ea db 3d
       -0.07597812 0.022687428 0.04134622 0.10738163
000010 8c a7 be bc 6a e7 5a bd 0e 26 d7 3d 82 7b e5 bd
       -0.023273252 -0.05344335 0.10505305 -0.11205198
000020 45 a0 95 3d 20 f4 a0 3d a0 4c f5 bd 1c 1e 41 3e
       0.073059596 0.07859063 -0.11977506 0.18859142
000030 98 d7 15 be 30 6d 9c 3c 4d 3c 9d 3d 67 ad 4d bd
       -0.14633024 0.019095033 0.07677517 -0.050214197
000040 92 0b b3 3d 59 f8 6d bd 57 b7 1e 3b ce 10 aa bd
       0.08742441 -0.05809817 0.0024218166 -0.083039865
000050 96 2b db bc da ba 01 bd 66 16 8f bd e7 2d 95 3d
       -0.026754182 -0.031672336 -0.06986694 0.07284146
000060 99 3e fa bd 09 65 9a 3d f0 70 8d bd d4 df 75 3d
       -0.12218971 0.07538802 -0.06906307 0.060027912
000070 70 b9 c8 3d c4 d4 34 3e 49 d0 47 be 97 a6 83 3d
       0.098009944 0.17659289 -0.19513048 0.06428259
000080 6f a8 2b 3c 80 6f ba bd 5c 52 f6 bc 98 c7 ea bd
       0.010477169 -0.09103298 -0.030068569 -0.11463851
000090 0d 95 19 bd 58 d5 85 3d 80 9d 80 3d c9 52 23 3e
       -0.03749566 0.06534833 0.06280041 0.15949549
0000a0 30 c7 96 be 1f 20 ba bd c5 3e f2 3c 1d 68 a8 3d
       -0.29448843 -0.09088158 0.029570946 0.08222983
0000b0 39 22 8e 3c 28 26 e5 3d ba c9 f9 bd 02 47 b6 3d
       0.017350303 0.11188918 -0.121966794 0.089002624
0000c0 08 07 aa bd 97 a4 a1 bd 07 5c 8c bd 5a 3a f0 3a
       -0.08302122 -0.07892721 -0.0685349 0.0018327937
0000d0 21 44 63 bd 05 5b 43 3d aa c3 3f 3c 8a 9b 27 bd
       -0.055484895 0.047694225 0.011704365 -0.040919818
0000e0 c4 87 23 bd bf b9 54 3d dd a4 a4 3c a1 eb 09 3d
       -0.039924398 0.051934954 0.020098144 0.03367198
0000f0 46 f4 51 3d 0e b6 e6 bd aa d9 01 be ec c5 10 bb
       0.051258348 -0.11265193 -0.12680689 -0.0022090627
000100 66 b6 da bc b6 46 1d be fc fd 55 3d 85 ac a3 3c
       -0.026698302 -0.15359005 0.05224417 0.019979725
000110 39 26 f7 3c d4 a6 14 3e 88 b3 fd bd 69 b2 23 bd
       0.030169593 0.14516765 -0.123877585 -0.039965067
000120 ba 74 0f 3c 2e b8 49 3c cf b4 80 bd 77 ce 85 3d
       0.008755857 0.012311978 -0.062844865 0.06533521
000130 41 c4 dd bc cd 84 00 bc 3d 50 f0 bc f1 fd 8a 3d
       -0.02707112 -0.007844162 -0.029335136 0.06786717
000140 3a 83 b7 3a 7c 20 67 3e ab 46 00 3d 97 29 fa bc
       0.00140009 0.22570986 0.031317394 -0.03053741
000150 94 f1 52 be cd 2d ad bd 0f a9 1f be cc 1f 30 be
       -0.20599967 -0.084560014 -0.15591834 -0.1719963
000160 3b 5a db bd ef 68 92 bd c4 6a 1a 3e 9e 10 9b 3d
       -0.107105695 -0.07148921 0.1507979 0.07571529
000170 7d 04 38 3c a7 1a 44 3b 0d 5a b9 3d 90 44 17 3c
       0.011231539 0.0029923113 0.09050379 0.009232655
000180 df 6c 2a 3d 9b 5e 86 3d 4d cc 7e be 20 d2 01 3e
       0.041607734 0.06561013 -0.24882622 0.12677813
000190 a4 64 f2 bc 28 85 61 3d 56 ae a5 3c 02 d5 4c 3d
       -0.029589005 0.05505863 0.020224731 0.050007828
0001a0 c8 93 d3 bd e5 bf d6 bc ac 76 a4 3d 76 a5 d0 bc
       -0.103309214 -0.02621455 0.08030447 -0.025469523
0001b0 18 0a 90 bb 6d 63 a6 3d 8b 67 24 bd b7 7c 21 3d
       -0.0043957345 0.08124433 -0.04013781 0.039425578
0001c0 ff 60 f2 3c 2f e8 2f 3d a5 4f bc bc ab e6 2c bd
       0.029587267 0.042946037 -0.022987196 -0.04221217
0001d0 fa 7c e3 bc 55 8a 3b bd 03 de 6a bd 0d 93 67 bc
       -0.027769554 -0.04578622 -0.057340633 -0.014134181
0001e0 21 35 5d be db 5d c3 bc 5e dc 11 3d 9e 5e b0 bd
       -0.21602298 -0.023848465 0.03561055 -0.08611797
0001f0 16 92 69 3d 5e 2a 2c 3e 4f d8 5a 3d 90 c0 b6 3d
       0.057024084 0.16813037 0.053428944 0.08923447
000200 00 fc a8 bb 6a 02 84 bd d1 f1 c1 bc 62 fa 5f bd
       -0.005156994 -0.06445773 -0.023674877 -0.054682143
000210 0a 20 2c 3c b5 9a c3 bc 9b 6d 28 be 1d ea 1d bd
       0.010505686 -0.023877481 -0.16448061 -0.038553346
000220 c6 60 82 bd 9c 2a 19 3c 2a f9 85 be 3c 92 64 bc
       -0.06366114 0.009348538 -0.2616666 -0.013950881
000230 a7 56 0a 3e 12 07 fd bb b7 63 33 3d e3 c7 2a 3c
       0.13509618 -0.00772179 0.043796267 0.010423633
000240 88 cd c5 3d 2d fd 63 3d af 3a b0 bd 3f 7f a2 3d
       0.096583426 0.05566137 -0.08604943 0.079344265
000250 32 f0 a9 3c a4 ed 94 bc e2 e0 83 3d 19 6a d6 bd
       0.020744417 -0.018179722 0.06439377 -0.10469455
000260 b2 89 67 bd f7 88 20 3c a1 1a 85 3d 7c 60 54 3d
       -0.0565278 0.00979828 0.0649922 0.051849827
000270 a2 09 27 bc 75 af 6e bd 7a f8 06 3d 98 62 57 bd
       -0.010195168 -0.058272798 0.03295181 -0.05258426
000280 4c 5b 8a 3d d6 63 a7 3c 22 0f 93 bc 2e d5 2c 3d
       0.06755695 0.020433348 -0.017951552 0.04219549
000290 2b f3 6d be 50 83 1b bc e6 e0 3e bb c3 d6 6d bd
       -0.23237292 -0.009491757 -0.002912575 -0.05806614
0002a0 39 e0 7e 3d c9 b6 81 3c e5 1c b5 bd e8 69 f8 bc
       0.062225554 0.015834229 -0.08843402 -0.030323938
0002b0 4d ee 18 be ac 02 20 3c 79 53 1e bd d6 90 a9 bc
       -0.14934655 0.009766262 -0.038653824 -0.020698946
0002c0 5e 72 82 3c 52 2e bb bd 04 80 13 be 49 f5 de 3d
       0.015923675 -0.09139694 -0.14404303 0.10886628
0002d0 d8 ce aa bd 52 0f c6 bd 18 bd 39 bd 0a 3b c3 bc
       -0.083402336 -0.09670891 -0.04534635 -0.023831863
0002e0 99 f7 4c bb 00 c6 44 bd 0e a2 e0 bc ad b9 ea bd
       -0.003127551 -0.04804039 -0.027421024 -0.11461196
0002f0 7f 16 2c be ff 05 81 bd 7c 6c c7 bd 12 0c 90 bc
       -0.16805457 -0.06299972 -0.097374886 -0.01758388
000300 1b 7c 21 be ed 9a f1 3c 66 74 94 3c be ea 28 bd
       -0.15769999 0.02949282 0.01812191 -0.041239493
000310 39 dc bf 3d c0 e4 46 be 25 1f 8d bd 5f c0 ef 3c
       0.09368176 -0.19423199 -0.06890706 0.029266534
000320 8a 05 a9 bd 87 62 52 3d 0c 56 94 bd 51 a3 ee bd
       -0.082530096 0.051363494 -0.07242975 -0.11652244
000330 c6 0f 6f 3e 39 d9 c4 bd be d6 0c 3d 64 63 b7 bd
       0.23345861 -0.096117444 0.03438448 -0.08954504
000340 3f 67 84 bd 21 b8 92 3c 8f d2 9b 3d 73 2f 06 be
       -0.06465005 0.017910065 0.0760852 -0.13104038
000350 0f 57 88 3b 00 29 9e 3d 98 db 4a 3d dc f2 40 bd
       0.004160769 0.07722664 0.049525827 -0.04710661
000360 d2 07 ea 3c a0 eb 9f 3c 3d 69 29 3d 79 bf 96 3d
       0.028568182 0.019521534 0.04136013 0.07360739
000370 7f fe 92 bd ad 3e 8b be 7d 8e 8c 3d 35 04 2a be
       -0.071774475 -0.27196255 0.06863115 -0.16603167
000380 c5 3f 49 3d 08 15 b1 bd 06 80 10 be fe ae 13 3d
       0.04913308 -0.086465895 -0.14111337 0.036055557
000390 78 53 0d be 23 ad 66 3d ae 90 13 be 62 9a e4 bd
       -0.13801372 0.05631746 -0.1441066 -0.11162259
0003a0 59 12 53 bd 8e 7f 10 3e d6 c2 25 be 2a 86 d1 3d
       -0.05153117 0.14111158 -0.16187605 0.10230668
0003b0 fc 14 a8 3d 87 94 e7 3d d3 53 57 bd 2e 18 64 3b
       0.082071275 0.11307626 -0.052570175 0.0034804451
0003c0 db 71 c2 ba 19 4e 65 3d 18 c8 54 bb 20 b7 69 be
       -0.0014834957 0.055982683 -0.0032467898 -0.22823763
0003d0 cf 9b 1c 3d a5 ab 04 be cf c0 e5 bd 08 ef c3 3c
       0.03823453 -0.12956102 -0.11218416 0.02391769
0003e0 36 c7 85 3d f1 7c 03 bd 50 fd 2a bd fa ac 34 be
       0.06532137 -0.032101575 -0.041745484 -0.1764411
0003f0 4e 77 bc 3d a9 19 8d bd d6 7a b6 bd eb 27 79 bb
       0.09202443 -0.0688966 -0.08910148 -0.0038018178

fc2.bias f4 [256]
000000 11 58 fc bc 18 75 64 bb d7 42 54 bd 4c e7 f7 bd
       -0.030803712 -0.0034859832 -0.051821556 -0.12104663
000010 61 3c 9a bd cf 00 83 bd 5c 66 fd bd 38 d3 b2 bc
       -0.075310476 -0.063966386 -0.12373039 -0.021829233
000020 58 d1 9a 3d 3d 12 e4 3d 82 7f e0 bd 7e e0 ca bd
       0.075594604 0.11136291 -0.1096182 -0.099061
000030 48 69 f4 3d 12 1c c3 3c d9 c9 14 be 6c a0 51 3c
       0.11934143 0.023817096 -0.14530124 0.012794595
000040 6e b8 c6 bd 2f 63 c4 bd aa ae 80 bd ed 72 81 bd
       -0.09703146 -0.0958923 -0.062833145 -0.063207485
000050 46 84 40 3d 98 5f b4 3d 7e 57 44 3c 5d e3 30 bd
       0.047001146 0.088072956 0.01198375 -0.04318558
000060 bf 9d a9 bc cd 6e 05 3c 97 01 a6 bd 86 46 95 3c
       -0.020705102 0.008144093 -0.08105772 0.018222105
000070 6e 9d bd b9 99 93 92 bc c1 12 6c bc ec 53 c2 bd
       -0.00036166183 -0.017892646 -0.014408768 -0.09488663
000080 8b f9 83 3d d0 17 84 3d 4a bf 9f 3c 75 8e 8c 3c
       0.06444081 0.064498544 0.019500393 0.017157773
000090 00 23 b2 3d 80 a9 dd 3d 3a 8a a2 3d f8 4e 17 3c
       0.08698082 0.10823345 0.07936521 0.009235136
0000a0 78 68 88 bd 33 d2 9d bc 19 44 d0 3d b3 f0 82 3d
       -0.06660551 -0.01926527 0.101692386 0.06393566
0000b0 0b f9 bd 3c 86 ea 07 be 6b 74 37 be 17 b7 fd 3b
       0.023190042 -0.13273057 -0.17915504 0.0077427733
0000c0 cc f5 23 3d 93 5d 9f bd 6d 67 e7 3d dc cf 0d 3d
       0.040029332 -0.0778152 0.11299024 0.03462206
0000d0 ba 38 54 bd 20 5d dc bd fa bc b1 bb 1c e5 9a bc
       -0.05181191 -0.1075995 -0.005424139 -0.018908076
0000e0 37 02 84 bd 49 6a 82 bd cc 34 94 3d 4f e3 05 be
       -0.06445735 -0.063679285 0.07236633 -0.13074993
0000f0 b1 e5 cc 3d 40 d8 96 bd 0b 4f 31 3d a8 1c 93 3d
       0.10004748 -0.07365465 0.043288272 0.071832
000100 00 2b 90 3c 80 f5 ca 3c 74 83 f8 3d dd bc bb 3d
       0.017598629 0.024775267 0.12134448 0.09166882
000110 a2 fd 15 bd fc b6 82 bc fb ec 5d bd e3 4c 9c 3d
       -0.036618836 -0.015956394 -0.05418108 0.076318525
000120 2d c0 a7 3d 52 ec fd 3d ab 62 fb 3d da ef 61 bb
       0.081909515 0.1239859 0.12274679 -0.0034475238
000130 50 74 99 3d e9 e3 6e bd 67 55 88 bc f0 01 a5 bd
       0.07492888 -0.05832282 -0.016642286 -0.0805701
000140 e4 e0 0b 3d c2 10 75 3d 9d 16 ba 3d ca 76 63 3d
       0.03415002 0.059830435 0.090863444 0.055533208
000150 e4 68 ca 3d a7 87 db 3c 67 49 a3 3d ad f8 12 be
       0.098832875 0.026798083 0.07972985 -0.14352675
000160 25 d6 bb 3c 7f c6 0d bc 44 d2 72 3d f2 6e 12 3d
       0.02292926 -0.008653282 0.059282556 0.035750337
000170 33 06 45 3d c4 3e 27 3d 7f 83 9f bd c7 28 18 3d
       0.048101615 0.040831342 -0.07788753 0.037148263
000180 ae d1 38 be d1 3a e1 3d 32 81 a6 bd 08 d0 a0 3d
       -0.18048736 0.109975465 -0.08130111 0.07852179
000190 70 01 8e bd 81 b5 48 3d ac 24 58 bd 55 2e 56 bd
       -0.06933868 0.04900122 -0.052769348 -0.05229028
0001a0 23 27 1e bd 20 6b 5e bd 81 bd b9 bd 32 d0 20 bd
       -0.038611542 -0.05430138 -0.09069348 -0.03926105
0001b0 15 bf d0 bd 7c 89 5f bc 1a aa 80 3d 84 ff 06 be
       -0.10192696 -0.013643619 0.06282444 -0.13183409
0001c0 c3 8b e5 bd 8b f8 81 bd dd 27 35 bd 0f 75 1a bd
       -0.11208298 -0.06346234 -0.04422747 -0.037709292
0001d0 10 09 92 bd 0a 24 22 be 87 3b 98 bd 32 cb 4e bd
       -0.07130635 -0.1583406 -0.07433229 -0.05048675
0001e0 b1 c8 d6 bd 88 1b d6 bd 76 54 16 3d 3a 06 8a bd
       -0.104874976 -0.1045447 0.036701642 -0.06739469
0001f0 7b 43 50 bd 38 59 1a be 0a 49 e6 3b 3e 95 65 3c
       -0.050845604 -0.15073097 0.00702775 0.014012633
000200 28 e2 ae 3d d7 f4 f0 bc 8a 26 90 3d d8 2d 84 3d
       0.0853923 -0.029413624 0.07038601 0.064540565
000210 87 39 db bd 30 aa 24 3d a6 9b e7 3c 91 23 80 bc
       -0.10704332 0.040201366 0.028272461 -0.01564196
000220 fb 67 d3 3b f6 c2 be bc 14 ba 0e bd e1 f6 84 3d
       0.0064516044 -0.023286324 -0.034845427 0.06492401
000230 41 6b ba 3d 2e ae b8 bd 69 8e a0 3d 97 ca 7e bd
       0.09102488 -0.09017597 0.078396626 -0.062204923
000240 f9 3e b7 bd 55 32 9d bd e8 2f 38 bb d3 4f 93 bb
       -0.08947558 -0.07675616 -0.0028104726 -0.0044956
000250 b5 fe 07 bb f3 53 0a 3d b9 a5 76 bd aa 32 66 bc
       -0.0020751182 0.033771466 -0.06021664 -0.014050165
000260 63 39 fd bd 1f 91 2c bd 65 42 f5 3c 84 73 82 bc
       -0.12364461 -0.042130586 0.029938886 -0.015924223
000270 2e 41 87 bc ff 5f 83 bd bf 6c b4 bd 43 bb c2 3c
       -0.016510572 -0.06414794 -0.08809804 0.023770934
000280 3f 63 a6 3c b1 c1 da 3c 4d 22 bf bd 71 d5 86 3d
       0.020310996 0.026703687 -0.09332714 0.065836795
000290 6c ae c2 3c 82 f6 cc 3d fb 25 05 bd 4b 72 ca bb
       0.023764811 0.10007955 -0.032506924 -0.0061781756
0002a0 4e 87 94 3c db 4b b5 3d f0 64 25 bd fe fc 44 3c
       0.018130925 0.08852359 -0.040379465 0.012023209
0002b0 94 44 35 3c dd 79 af 3b ab 31 cb ba 25 ec 8b 3c
       0.011063714 0.0053551034 -0.0015502473 0.017080376
0002c0 d3 75 b5 bd 4d dd e5 bb 31 9a 2a 3c b8 14 d2 3c
       -0.08860364 -0.0070149065 0.010412739 0.025644645
0002d0 d7 4c 40 3d 08 97 00 be 81 55 20 3d f5 8d 11 3d
       0.04694828 -0.12557614 0.039144043 0.03553577
0002e0 0e 03 87 3d da f1 fc 3b f7 29 83 3b 8d a9 9b 3d
       0.065923795 0.0077192606 0.0040028053 0.076006986
0002f0 b1 3f 92 3d f1 40 dd bc 2b fc 77 bd f2 51 fe bc
       0.071410544 -0.027008506 -0.06054322 -0.031044934
000300 15 cd 6f bd d1 42 9a 3d 41 85 06 be 67 f1 b6 bd
       -0.05854519 0.075322755 -0.1313677 -0.089327626
000310 09 8d 8b bd 58 9b fc bd 83 e0 46 3b a2 d7 da 3a
       -0.0681401 -0.12334317 0.0030346222 0.0016696344
000320 b7 0b 02 be e8 02 03 bd 87 f6 00 bd 58 63 74 bd
       -0.12699781 -0.031985193 -0.031485107 -0.059665054
000330 60 f9 3e bd d5 e6 3c bc 5b 1d d7 bd 4c 6b 06 3d
       -0.04662454 -0.011529644 -0.10503646 0.03281717
000340 ac 80 69 bd da 01 bd bd 28 be 33 3d 49 74 4e bd
       -0.057007477 -0.09228869 0.04388252 -0.050403867
000350 24 e0 fb bc f6 bd 10 be 61 b5 fc 3d 40 58 d8 bd
       -0.030746527 -0.14134964 0.12339283 -0.10563707
000360 15 bc 8b 3d 93 45 3c 3c df 1e b5 3d 89 4c 74 3d
       0.06822983 0.011491197 0.08843779 0.059643302
000370 41 1e 8e bd b5 66 9e 3b d5 38 3b bc 6e 37 3b be
       -0.06939364 0.004834021 -0.011427124 -0.18282863
000380 e0 59 93 3d 41 6e f0 bc 89 27 4c bd cc db 00 3e
       0.07194877 -0.029349448 -0.04984239 0.12583846
000390 46 d5 fa 3c 51 c3 ed bc 2b 9e b1 3d af b8 37 bd
       0.030619275 -0.029023798 0.08672746 -0.044853862
0003a0 79 2e 91 bd e6 2b 2a be 21 86 ba bc 69 b0 e5 bc
       -0.07088942 -0.16618308 -0.022769036 -0.02803822
0003b0 51 d1 52 3d a8 87 3e 3d b9 2c 95 3c 8b f2 11 be
       0.05146915 0.04651609 0.018209802 -0.14252679
0003c0 a7 c1 dc 3d 73 bf 41 be 84 c3 00 bb c4 91 d6 bc
       0.10779124 -0.18920688 -0.0019647786 -0.026192553
0003d0 6a 11 75 bc ff 9e dd 37 b7 8c 29 bd db b7 d6 3d
       -0.014957765 2.6419291e-05 -0.04139396 0.104842864
0003e0 4a c7 e8 bd ca 0b a9 bc 5e 60 ab bd f6 22 c7 ba
       -0.11366136 -0.020635504 -0.0836799 -0.0015192914
0003f0 0a 90 47 3b 3e 8e f1 bd 39 e5 f9 bd 96 34 76 3d
       0.0030450844 -0.11794709 -0.12201924 0.060108744

fc3.weight f4 [128, 256]
000000 31 ec 1f bd 75 e9 a0 bc 2b 3c 0d bb fa 32 20 be
       -0.03904361 -0.019642571 -0.0021550755 -0.15644446
000010 0e dc 8b be 2c f8 cb bd 1f f6 37 3c 87 76 6d bd
       -0.27316326 -0.099594444 0.011228113 -0.057974365
000020 9f 6c 0a 3d 0c 45 30 3d 4a 1c 9d be 38 1a a8 bd
       0.033794995 0.0430346 -0.30685645 -0.08208126
000030 6c bb de bd 04 59 d4 3c 6d 61 86 bc c1 c2 28 be
       -0.10875592 0.025921352 -0.016403878 -0.16480543
000040 db 7a e2 3d e9 4e 3d be 2c e7 a1 bd 37 fa 05 bc
       0.11058589 -0.18487133 -0.07905421 -0.008177332
000050 9f 2d fe 3b d9 42 ee bc 56 e5 47 bd 65 a5 23 be
       0.0077569033 -0.02908461 -0.048802696 -0.15981062
000060 f5 fc 14 3b c5 63 81 3d d4 89 d2 bd 65 44 04 bc
       0.0022733782 0.06317858 -0.10280195 -0.008072947
000070 2f a6 a4 3d 6b e1 0b 3e b3 17 5e be c4 1d 63 3d
       0.080395095 0.13660209 -0.21688728 0.05544831
000080 0f 1c 1e bd d4 be 00 bd 10 f7 b3 bd 2d c0 83 3d
       -0.038600978 -0.031431988 -0.08787358 0.06433139
000090 63 ef 3f bd 1b 58 b0 bd 74 df 4d 3d 1b 25 f1 bc
       -0.046859156 -0.08610555 0.05026193 -0.029436639
0000a0 a1 3d 6e bb 6a 31 b9 bd fa dc 0f 3e 8b ab 0c 3d
       -0.0036352652 -0.09042628 0.1404914 0.034343284
0000b0 bb 24 09 bd 0a 61 38 3d cc 43 eb bd b3 61 64 3c
       -0.033482295 0.04501442 -0.114875406 0.013939309
0000c0 db 97 11 3e d3 c3 ee bd 1a 6c a7 3c de 79 ee 3d
       0.14218085 -0.11658444 0.020437289 0.11644338
0000d0 e7 50 06 be 26 f6 95 3b ce b5 9c 3d 04 de dc 3d
       -0.131168 0.0045764623 0.07651864 0.107845336
0000e0 98 ca a7 3c 69 a8 fc bc 6d 1d 20 be 4d 28 49 3d
       0.020482346 -0.030842023 -0.15636225 0.0491107
0000f0 34 4b 15 3d 6a eb 1c 3e 0e ea ca 3d 74 43 11 be
       0.036448672 0.15324178 0.09907924 -0.14185888
000100 ae f4 ff 3d e0 4d ac 3d 4d ac a7 3a 86 a8 91 3c
       0.12497841 0.08413291 0.0012792439 0.017780554
000110 3b f8 45 ba 85 c5 46 bb 24 fd f5 bd 13 84 c4 bd
       -0.0007551943 -0.0030330133 -0.12011173 -0.09595504
000120 79 ef 9c bd c9 3c 4e bb e8 af 0d 3d 95 68 e3 3b
       -0.07662863 -0.0031469336 0.034591585 0.0069399574
000130 2b 0f 04 3d 8d eb a7 3d 75 a0 b1 3d f7 af 85 bd
       0.032241028 0.081992246 0.08673183 -0.06527703
000140 85 cd 9c 3d 85 4e 54 3e 05 4e 8d 3d 64 ef 8e 3d
       0.07656387 0.20733078 0.06899647 0.06979254
000150 6d 13 a9 bc af 7b cf bd ed 33 55 bd ed c4 48 3b
       -0.020639146 -0.10131013 -0.052051473 0.0030634955
000160 e4 77 9b 3d 69 29 2a 3e fe 49 21 3c 3e 73 bf 3d
       0.07591227 0.16617359 0.009844301 0.093481526
000170 93 cb 27 bd 98 d7 c9 bd 01 47 15 bd 84 22 8a 3d
       -0.040965628 -0.09855574 -0.036444668 0.067448646
000180 7f d8 84 bc 97 c3 1e be 83 f9 01 be 38 fc 03 3e
       -0.016216515 -0.15504299 -0.12692837 0.12889183
000190 90 73 5c 3d 46 0f 29 be 86 7c 28 3e 2c dc 27 3d
       0.053821146 -0.16509733 0.16453752 0.040981457
0001a0 0c 78 1b bd 50 9d 43 be c2 2e 9a 3d 18 ab 40 bd
       -0.037956282 -0.19102979 0.075284496 -0.047038168
0001b0 de ef 58 bd ad c9 07 be 36 44 f8 3d 9f ce 19 be
       -0.05296313 -0.13260527 0.12122385 -0.15020226
0001c0 43 cf 2e be 77 a1 09 3e 30 13 d3 3c 45 fe 75 bc
       -0.17071252 0.134405 0.025765985 -0.015014236
0001d0 fc 75 ed 3c 5a c8 a5 bd 4a 30 9f 3d cb a5 17 3e
       0.028986923 -0.08094855 0.07772882 0.14809339
0001e0 c9 fc 44 be f2 e6 e4 bd 78 a9 f9 bd 72 bf 04 3d
       -0.19237055 -0.11176862 -0.12190527 0.03240914
0001f0 d7 5b 16 3e 85 6b 92 bd 12 02 ba 3c 4e 9a 04 3e
       0.14683472 -0.07149414 0.022706065 0.12949488
000200 40 0b 66 bc ea 67 3c bd ad 43 2e bd 97 9a ad 3d
       -0.014040768 -0.045997538 -0.04254501 0.08476751
000210 f4 32 11 3e c5 a6 05 be 5f b3 2b 3d ca d1 11 bd
       0.14179593 -0.13051899 0.04191911 -0.03560046
000220 28 11 99 bd 4e 58 d5 bc a3 94 e4 bc 68 14 6d 3d
       -0.074739754 -0.026043084 -0.027902907 0.05788079
000230 58 fa e1 bd 90 ab 05 3e 98 85 be 3d 93 7b ab bc
       -0.110340774 0.13053727 0.09302825 -0.020932948
000240 67 a1 11 3d 7d 14 68 3d 8f b2 33 be 2d 2d f9 bd
       0.035554316 0.056660164 -0.17548583 -0.1216682
000250 95 99 bc bd 35 47 18 bd 0e 6e 03 bb 4b 70 bc 3c
       -0.09208981 -0.037177283 -0.0020054611 0.023002764
000260 f8 1f 9e bc 22 64 17 3d a8 96 bd bd 91 79 57 3d
       -0.019302353 0.03696073 -0.09257251 0.05260617
000270 19 12 6e 3d dc 14 e5 bc e9 df bd bc 7a 60 ac bd
       0.058122728 -0.027964048 -0.023178058 -0.08416839
000280 81 f5 ef bd cf 00 2a 3d f5 e2 b4 bc 27 96 c4 3c
       -0.11716748 0.041504677 -0.022080878 0.02399738
000290 25 86 6a bd d9 65 b2 3d 80 41 6c bd 69 80 44 3d
       -0.057256836 0.08710832 -0.057679653 0.047974024
0002a0 eb 4b 55 bd 00 58 ee bd 82 17 43 bd 9f 7f b6 3d
       -0.052074354 -0.116378784 -0.04762984 0.089110605
0002b0 4b ec c2 3c 0d 08 fe 3b af fe bb bb 65 24 68 bd
       0.023794314 0.0077524246 -0.0057371478 -0.056675334
0002c0 40 75 bc 3d d3 d3 4d 3d c5 4e 50 bc 10 e2 4b 3d
       0.09202051 0.05025084 -0.012714093 0.049776137
0002d0 62 97 10 3d 08 c2 6d 3d bd 9f d6 bd a5 00 83 bc
       0.03530062 0.05804637 -0.104796864 -0.015991518
0002e0 ae a2 05 bc d9 20 ff bc 79 b2 e6 3d d7 94 f6 3c
       -0.008156462 -0.031143593 0.1126451 0.03010027
0002f0 11 e6 67 3d d0 ab 02 be bc 0f 0d be 8b d8 df bc
       0.056615893 -0.12760854 -0.13775533 -0.027324935
000300 cd 88 45 3d e3 e9 23 be 51 df d8 3c 52 ed 01 3e
       0.048226167 -0.1600719 0.026473673 0.12688187
000310 30 8d 70 3d 23 99 28 3e df 46 1d 3e 0f b9 d8 3c
       0.058728397 0.16464667 0.15359066 0.02645543
000320 6b 7a 52 bd 17 35 92 bd 16 c1 ab bc ce b2 87 bc
       -0.051386278 -0.07139032 -0.020966094 -0.016564753
000330 29 83 c5 bd 3a 5f 97 bd d5 2b 7f bc 04 42 e9 3d
       -0.096441574 -0.0739121 -0.015574415 0.113895446
000340 c4 14 93 3b e9 a0 eb 3d 5d 00 4a 3a 69 23 23 be
       0.0044885594 0.115053006 0.00077057426 -0.15931477
000350 65 13 57 bd e6 fd 5e be 61 33 28 3b 78 70 b7 bc
       -0.05250873 -0.21776542 0.002566539 -0.022392496
000360 25 db a2 bd 55 9c ae bc 73 4f 89 bd a6 36 c4 bb
       -0.07951955 -0.02131478 -0.06704607 -0.00598796
000370 30 1e 23 3e 74 0f 18 bd 07 28 6a bd ea 2f 9d 3c
       0.15929484 -0.037124112 -0.05716708 0.019187886
000380 49 60 5c 3d f9 7c 92 be c5 77 e8 bd b1 db 2b 3d
       0.053802762 -0.28610972 -0.11350969 0.04195756
000390 b7 4d bb 3d bb f1 10 3c c0 53 f6 3c 5c 0a cf bd
       0.09145682 0.008846696 0.030069232 -0.10109398
0003a0 66 0a 44 3d 4b c7 3d bd 24 96 fb 3c 80 63 30 3d
       0.04786148 -0.04633264 0.030711241 0.04306364
0003b0 41 a6 22 3d 2f 61 d8 3c 33 b4 50 3d 56 c0 a7 3c
       0.039709333 0.026413528 0.0509531 0.020477455
0003c0 b1 b3 3c 3d ed c6 b7 3d b9 5f 78 bd e7 dd 0b 3e
       0.046069805 0.08973489 -0.060638163 0.13658868
0003d0 cc 5f 28 3d fb c0 ac 3b dc 63 43 bd 50 fb ac 3d
       0.041106984 0.0052720285 -0.047702655 0.084463716
0003e0 8c 4a 67 bd 95 55 f5 bd 10 a3 16 3e 9a fd b1 bd
       -0.056467578 -0.11979214 0.14710641 -0.08690949
0003f0 47 d0 ed 3c 00 ad c1 bd 89 e0 a7 bd 2a 59 91 3d
       0.029029978 -0.09456825 -0.081971236 0.07097085

fc3.bias f4 [128]
000000 12 a3 4e bd 1d 03 e3 3c 07 f3 0c 3e 58 85 f5 bd
       -0.050448485 0.027711445 0.13764583 -0.11988324
000010 cc 7d 87 bc ef 58 7a bd 4e 8f bd 3d fd 50 48 bd
       -0.016539477 -0.06111997 0.09255849 -0.04890536
000020 e3 a4 89 3c b8 f1 8e 3e 8e a2 a4 bd af 4d e7 3c
       0.016802257 0.27918792 -0.08038817 0.028235285
000030 d5 93 49 3d 3f 7c 07 bd 6c 10 67 bc 82 49 4d 3d
       0.04921325 -0.033077475 -0.014103036 0.05011893
000040 00 90 01 be fa 14 7c 3e 63 0d 04 be 69 10 a4 3d
       -0.12652588 0.24617377 -0.12895732 0.080109425
000050 e1 6d 30 3e ac 3a c0 3d 28 0b c3 bd dc 6f 24 bd
       0.17229415 0.09386191 -0.09523612 -0.04014574
000060 3d 17 92 3d 32 65 e4 bd fb dd 15 3e 42 80 ec bd
       0.071333386 -0.11152114 0.1463546 -0.11547901
000070 a2 6b 04 be b7 a6 10 be cf 54 23 3e 54 cc 79 3e
       -0.12931684 -0.14126097 0.1595032 0.24394351
000080 8d 15 1c 3e 5a c0 05 be 6b ca be 3d bb e4 bf 3d
       0.15242596 -0.13061658 0.09315952 0.09369799
000090 05 13 71 bc 1f 53 2e 3d 6c f9 1f bd 7e c7 3a 3d
       -0.014714007 0.04255974 -0.039056227 0.045600407
0000a0 0a 83 27 3d 2b 7e 71 3e 35 10 cc 3d af 5e ef 3d
       0.040896453 0.23583286 0.09964029 0.11687981
0000b0 d2 fe 53 3e 69 cb 38 3e bf 1b ba 3d 96 62 84 3e
       0.20702675 0.18046345 0.090873234 0.25856465
0000c0 26 ce 0a 3e 70 27 64 bd cd 89 17 bd f8 51 79 3e
       0.13555202 -0.055701673 -0.03699665 0.24347675
0000d0 f6 f3 f2 bd 90 16 ad 3d b1 03 96 bd a8 ad f5 3d
       -0.11862938 0.08451569 -0.07324923 0.11996013
0000e0 3b 0e 0c be f3 8f f4 bd 68 d5 9a ba cf e5 48 3e
       -0.13677303 -0.11941519 -0.0011812868 0.19618915
0000f0 b5 fa ab bd 50 46 7f 3e 14 41 29 3e ea 64 c9 bc
       -0.08397428 0.24929166 0.16528732 -0.024584252
000100 aa 7c dd bd 79 c4 5c 3d 4f d5 92 3d 17 ee 99 bd
       -0.108147934 0.05389831 0.07169592 -0.07516115
000110 ae 1e 60 3e d4 95 95 bd 36 f7 68 3e e4 af a5 3b
       0.21886703 -0.07303968 0.22750553 0.005056368
000120 2e 52 cc 3d e7 be d9 bc 50 d0 50 3e da e9 a8 bd
       0.09976612 -0.026580287 0.20391965 -0.08247729
000130 89 fc d3 bd c1 42 ca 3d fa 18 26 3e 80 17 4c 3e
       -0.10350902 0.098760135 0.16220465 0.1993084
000140 c8 49 04 3d fd df 0f bc 7d eb 42 bd d4 35 17 be
       0.032296926 -0.00878143 -0.04758786 -0.14766628
000150 a6 47 a1 bd 21 a2 d6 bd d1 c3 4a 3d 40 1b 01 3e
       -0.07874994 -0.104801424 0.04950315 0.12608051
000160 67 5d c5 3c 11 ed 46 3c 19 1c 04 be 11 d5 01 be
       0.02409239 0.012141482 -0.12901343 -0.12678935
000170 52 09 c8 3d 74 0c 38 bd 7c f1 08 3d 93 46 3b 3e
       0.09767403 -0.04493375 0.033433422 0.1828864
000180 58 37 6a 3e 0a 5e bf 3d fd 31 1f be ee 6f 22 be
       0.22872674 0.093441084 -0.15546413 -0.1586301
000190 fd d2 31 3e 27 6c 76 3e cd 65 db 3c 83 fa 13 3d
       0.17365642 0.24064694 0.02678194 0.03612758
0001a0 db 6e e0 3d 29 1d 10 3c 24 5f bc bd 70 f4 fb 3c
       0.10958644 0.008796015 -0.09197834 0.030756205
0001b0 f3 b5 3c 3e 92 76 0f bd c5 cd 88 3e de 25 02 be
       0.18428783 -0.035025187 0.2671949 -0.12709758
0001c0 d3 5b 1e be dc 79 2a 3e 92 13 bc bd d2 33 15 be
       -0.15464716 0.16648048 -0.0918342 -0.14570549
0001d0 a2 52 87 ba c9 78 57 3e 31 c4 7a 3d d5 e4 5b 3e
       -0.0010324309 0.2104217 0.06122226 0.21474011
0001e0 1a 56 dc 3d 8c 30 16 3e 22 0a b5 bd 03 c5 eb bd
       0.1075861 0.14666957 -0.08839823 -0.115121864
0001f0 05 60 3b 3e b0 29 96 bd 8a 6b 3e bd b0 4b 6a 3d
       0.18298347 -0.0733217 -0.046489276 0.057201087

fc4.weight f4 [1, 128]
000000 97 02 44 bd 44 a5 14 3e 08 12 0f 3e d3 2b 33 be
       -0.047854032 0.14516169 0.13971722 -0.17497186
000010 ce 2c 56 bd 3a e2 0c be c5 a3 c3 3d ab 67 00 3e
       -0.052288823 -0.13758174 0.09552721 0.12539546
000020 d7 e9 15 3e c9 cc 3b 3e 7a 04 1e be 13 94 de 3d
       0.14639984 0.18339838 -0.15431395 0.10868087
000030 a0 54 f6 3d 09 7b f5 bd 57 5c b7 bd 80 8a 2f 3e
       0.1202786 -0.11986358 -0.08953159 0.17142677
000040 6c dc ee bd df cf 86 3e 13 76 3c be 65 ed 44 3e
       -0.11663136 0.26330468 -0.18404417 0.19231184
000050 d9 e8 41 3e 27 c3 0b 3e ff dc 16 be c4 82 0d be
       0.1893648 0.13648663 -0.14732741 -0.13819414
000060 4e b5 64 3e e0 67 36 be 78 be 31 3e a7 a8 08 be
       0.22334787 -0.17813063 0.17357814 -0.13345586
000070 d8 d8 c2 bd 73 bf 2c be df 1d 5a 3e a5 7d 0f 3e
       -0.09514016 -0.16869907 0.21300457 0.14012773
000080 c5 2b 4e 3e eb db c3 bd c4 a4 20 3e 26 51 ca 3d
       0.20133884 -0.095634304 0.15687853 0.09878759
000090 fb fa 7d 3e ea e2 0f 3e 33 c8 43 bd 2e 4d b9 3d
       0.24802773 0.14051405 -0.047798347 0.09047924
0000a0 e6 ab c2 3d f9 00 d2 3d d2 fe ef 3d f6 9a 25 3e
       0.09505443 0.10254092 0.11718525 0.16172394
0000b0 c8 55 0b 3e 5f 24 f7 3d 72 04 4d 3e 4e fa df 3d
       0.13606942 0.12067484 0.20021227 0.10936414
0000c0 bd 1d 26 3e 40 c9 2d be 1d eb f4 bd 15 49 f2 3d
       0.16222282 -0.16971302 -0.11958907 0.118303455
0000d0 f2 fe f7 bd c4 6b c8 3d fb 8a 3d be 8e ba ed 3d
       -0.12109174 0.0978618 -0.18510048 0.11607848
0000e0 9a cc 4c be 22 0b 15 be 36 62 ee 3d 6e c6 0a 3e
       -0.19999924 -0.14555028 0.11639826 0.13552257
0000f0 b4 4a 04 be 28 41 d4 3d 93 f3 06 3e 41 1a 93 3e
       -0.12919122 0.1036399 0.13178854 0.28730968
000100 fd f3 03 be ee bd e7 3d 2e 3c 00 3e 55 7b f1 bd
       -0.12886043 0.11315523 0.12522957 -0.11791102
000110 48 3d fa 3d ea 6f 03 be dc c1 4f 3e a3 f7 4e 3e
       0.1221872 -0.1283566 0.20288795 0.20211653
000120 1e d1 ec 3d 42 6b 00 be 63 96 ef 3d 89 90 ce bd
       0.115633234 -0.12540916 0.11698606 -0.10086162
000130 f2 81 0e be bf 2d 2a 3e 74 48 35 3e 46 50 18 3e
       -0.13916758 0.16619013 0.1770342 0.14874372
000140 3f 10 d2 3d fc 92 a5 3d 8f e3 4b be 89 4a 4b be
       0.10257005 0.08084676 -0.19911025 -0.19852652
000150 20 f6 05 be 09 a5 23 be 82 04 3d 3e 6e da de 3d
       -0.1308217 -0.15980925 0.18458751 0.10881506
000160 76 cb e9 3d 05 ff 22 3e 47 a4 00 be f9 a7 4a be
       0.1141576 0.15917595 -0.12562667 -0.19790639
000170 7d 01 1c 3e f0 8e a2 bd ad 32 05 3e dd 07 77 3e
       0.15234943 -0.079374194 0.13007613 0.24124093
000180 b0 3e 1a 3e 86 fb 13 3e ba 76 da bd 9f 57 22 be
       0.15062976 0.14451417 -0.106671765 -0.15853737
000190 4e c5 f4 3d b6 b4 fd 3d 6b dc 1e 3e 37 76 ea 3d
       0.119516954 0.123879835 0.1551377 0.11448329
0001a0 0d 9c e3 3d db 68 71 3e 9c f4 3e be 23 d6 d2 3d
       0.11113749 0.23575155 -0.18647999 0.102947496
0001b0 71 51 2c 3e e1 b5 7c bd 47 20 0e 3e 40 8d ec bd
       0.16827942 -0.06169689 0.138795 -0.11550379
0001c0 0c 0c 3a be 76 c8 15 3e 4c da 76 bd fd dd 52 be
       -0.18168658 0.14627251 -0.060266778 -0.20592494
0001d0 fc 73 6b 3e 26 c2 6e 3e c2 c6 14 3e 02 3a 06 3e
       0.22993463 0.23316249 0.14528945 0.13108066
0001e0 30 c2 dd 3d 0b 26 0a 3e 13 c0 1f be ee d1 0e be
       0.10828054 0.13491075 -0.15600614 -0.1394727
0001f0 00 9a 23 3e 13 14 ab bd b3 82 16 3e 51 54 e3 3d
       0.15976715 -0.08353438 0.14698295 0.111000665
